program(1.0)
[buildInfo = dict<tensor<string, []>, tensor<string, []>>({{"coremlc-component-MIL", "3520.4.1"}, {"coremlc-version", "3520.5.1"}, {"coremltools-component-torch", "2.8.0"}, {"coremltools-source-dialect", "TorchScript"}, {"coremltools-version", "9.0"}})]
{
    func main<ios16>(tensor<fp32, [1, 3, 224, 224]> image) {
            tensor<fp32, []> image__scaled___y_0 = const()[name = tensor<string, []>("image__scaled___y_0"), val = tensor<fp32, []>(0x1.010102p-8)];
            tensor<fp32, [1, 3, 224, 224]> image__scaled__ = mul(x = image, y = image__scaled___y_0)[name = tensor<string, []>("image__scaled__")];
            tensor<string, []> image_to_fp16_dtype_0 = const()[name = tensor<string, []>("image_to_fp16_dtype_0"), val = tensor<string, []>("fp16")];
            tensor<fp16, [1, 3, 1, 1]> mean_to_fp16 = const()[name = tensor<string, []>("mean_to_fp16"), val = tensor<fp16, [1, 3, 1, 1]>([[[[0x1.f0cp-2]], [[0x1.d3p-2]], [[0x1.9fcp-2]]]])];
            tensor<fp16, [1, 3, 224, 224]> image_to_fp16 = cast(dtype = image_to_fp16_dtype_0, x = image__scaled__)[name = tensor<string, []>("cast_30")];
            tensor<fp16, [1, 3, 224, 224]> var_6_cast_fp16 = sub(x = image_to_fp16, y = mean_to_fp16)[name = tensor<string, []>("op_6_cast_fp16")];
            tensor<fp16, [1, 3, 1, 1]> _inversed_x_3_y_0_to_fp16 = const()[name = tensor<string, []>("_inversed_x_3_y_0_to_fp16"), val = tensor<fp16, [1, 3, 1, 1]>([[[[0x1.178p+2]], [[0x1.1dcp+2]], [[0x1.1c8p+2]]]])];
            tensor<fp16, [1, 3, 224, 224]> _inversed_x_3_cast_fp16 = mul(x = var_6_cast_fp16, y = _inversed_x_3_y_0_to_fp16)[name = tensor<string, []>("_inversed_x_3_cast_fp16")];
            tensor<int32, []> var_19 = const()[name = tensor<string, []>("op_19"), val = tensor<int32, []>(1)];
            tensor<string, []> x_5_pad_type_0 = const()[name = tensor<string, []>("x_5_pad_type_0"), val = tensor<string, []>("valid")];
            tensor<int32, [2]> x_5_strides_0 = const()[name = tensor<string, []>("x_5_strides_0"), val = tensor<int32, [2]>([14, 14])];
            tensor<int32, [4]> x_5_pad_0 = const()[name = tensor<string, []>("x_5_pad_0"), val = tensor<int32, [4]>([0, 0, 0, 0])];
            tensor<int32, [2]> x_5_dilations_0 = const()[name = tensor<string, []>("x_5_dilations_0"), val = tensor<int32, [2]>([1, 1])];
            tensor<int32, []> x_5_groups_0 = const()[name = tensor<string, []>("x_5_groups_0"), val = tensor<int32, []>(1)];
            tensor<fp16, [384, 3, 14, 14]> backbone_patch_embed_proj_weight_to_fp16 = const()[name = tensor<string, []>("backbone_patch_embed_proj_weight_to_fp16"), val = tensor<fp16, [384, 3, 14, 14]>(BLOBFILE(path = tensor<string, []>("@model_path/weights/weight.bin"), offset = tensor<uint64, []>(64)))];
            tensor<fp16, [384]> backbone_patch_embed_proj_bias_to_fp16 = const()[name = tensor<string, []>("backbone_patch_embed_proj_bias_to_fp16"), val = tensor<fp16, [384]>(BLOBFILE(path = tensor<string, []>("@model_path/weights/weight.bin"), offset = tensor<uint64, []>(451712)))];
            tensor<fp16, [1, 384, 16, 16]> x_5_cast_fp16 = conv(bias = backbone_patch_embed_proj_bias_to_fp16, dilations = x_5_dilations_0, groups = x_5_groups_0, pad = x_5_pad_0, pad_type = x_5_pad_type_0, strides = x_5_strides_0, weight = backbone_patch_embed_proj_weight_to_fp16, x = _inversed_x_3_cast_fp16)[name = tensor<string, []>("x_5_cast_fp16")];
            tensor<int32, [3]> concat_0 = const()[name = tensor<string, []>("concat_0"), val = tensor<int32, [3]>([1, 384, 256])];
            tensor<fp16, [1, 384, 256]> var_60_cast_fp16 = reshape(shape = concat_0, x = x_5_cast_fp16)[name = tensor<string, []>("op_60_cast_fp16")];
            tensor<int32, [3]> x_7_perm_0 = const()[name = tensor<string, []>("x_7_perm_0"), val = tensor<int32, [3]>([0, 2, 1])];
            tensor<bool, []> x_9_interleave_0 = const()[name = tensor<string, []>("x_9_interleave_0"), val = tensor<bool, []>(false)];
            tensor<fp16, [1, 1, 384]> backbone_cls_token_to_fp16 = const()[name = tensor<string, []>("backbone_cls_token_to_fp16"), val = tensor<fp16, [1, 1, 384]>(BLOBFILE(path = tensor<string, []>("@model_path/weights/weight.bin"), offset = tensor<uint64, []>(452544)))];
            tensor<fp16, [1, 256, 384]> x_7_cast_fp16 = transpose(perm = x_7_perm_0, x = var_60_cast_fp16)[name = tensor<string, []>("transpose_120")];
            tensor<fp16, [1, 257, 384]> x_9_cast_fp16 = concat(axis = var_19, interleave = x_9_interleave_0, values = (backbone_cls_token_to_fp16, x_7_cast_fp16))[name = tensor<string, []>("x_9_cast_fp16")];
            tensor<fp16, [1, 257, 384]> backbone_pos_embed_to_fp16 = const()[name = tensor<string, []>("backbone_pos_embed_to_fp16"), val = tensor<fp16, [1, 257, 384]>(BLOBFILE(path = tensor<string, []>("@model_path/weights/weight.bin"), offset = tensor<uint64, []>(453376)))];
            tensor<fp16, [1, 257, 384]> input_1_cast_fp16 = add(x = x_9_cast_fp16, y = backbone_pos_embed_to_fp16)[name = tensor<string, []>("input_1_cast_fp16")];
            tensor<int32, [1]> x_11_axes_0 = const()[name = tensor<string, []>("x_11_axes_0"), val = tensor<int32, [1]>([-1])];
            tensor<fp16, [384]> backbone_blocks_0_norm1_weight_to_fp16 = const()[name = tensor<string, []>("backbone_blocks_0_norm1_weight_to_fp16"), val = tensor<fp16, [384]>(BLOBFILE(path = tensor<string, []>("@model_path/weights/weight.bin"), offset = tensor<uint64, []>(650816)))];
            tensor<fp16, [384]> backbone_blocks_0_norm1_bias_to_fp16 = const()[name = tensor<string, []>("backbone_blocks_0_norm1_bias_to_fp16"), val = tensor<fp16, [384]>(BLOBFILE(path = tensor<string, []>("@model_path/weights/weight.bin"), offset = tensor<uint64, []>(651648)))];
            tensor<fp16, []> var_9_to_fp16 = const()[name = tensor<string, []>("op_9_to_fp16"), val = tensor<fp16, []>(0x1.1p-20)];
            tensor<fp16, [1, 257, 384]> x_11_cast_fp16 = layer_norm(axes = x_11_axes_0, beta = backbone_blocks_0_norm1_bias_to_fp16, epsilon = var_9_to_fp16, gamma = backbone_blocks_0_norm1_weight_to_fp16, x = input_1_cast_fp16)[name = tensor<string, []>("x_11_cast_fp16")];
            tensor<fp16, [1152, 384]> backbone_blocks_0_attn_qkv_weight_to_fp16 = const()[name = tensor<string, []>("backbone_blocks_0_attn_qkv_weight_to_fp16"), val = tensor<fp16, [1152, 384]>(BLOBFILE(path = tensor<string, []>("@model_path/weights/weight.bin"), offset = tensor<uint64, []>(652480)))];
            tensor<fp16, [1152]> backbone_blocks_0_attn_qkv_bias_to_fp16 = const()[name = tensor<string, []>("backbone_blocks_0_attn_qkv_bias_to_fp16"), val = tensor<fp16, [1152]>(BLOBFILE(path = tensor<string, []>("@model_path/weights/weight.bin"), offset = tensor<uint64, []>(1537280)))];
            tensor<fp16, [1, 257, 1152]> linear_0_cast_fp16 = linear(bias = backbone_blocks_0_attn_qkv_bias_to_fp16, weight = backbone_blocks_0_attn_qkv_weight_to_fp16, x = x_11_cast_fp16)[name = tensor<string, []>("linear_0_cast_fp16")];
            tensor<int32, [5]> var_89 = const()[name = tensor<string, []>("op_89"), val = tensor<int32, [5]>([1, 257, 3, 6, 64])];
            tensor<fp16, [1, 257, 3, 6, 64]> qkv_1_cast_fp16 = reshape(shape = var_89, x = linear_0_cast_fp16)[name = tensor<string, []>("qkv_1_cast_fp16")];
            tensor<int32, [3]> var_91_split_sizes_0 = const()[name = tensor<string, []>("op_91_split_sizes_0"), val = tensor<int32, [3]>([1, 1, 1])];
            tensor<int32, []> var_91_axis_0 = const()[name = tensor<string, []>("op_91_axis_0"), val = tensor<int32, []>(2)];
            tensor<fp16, [1, 257, 1, 6, 64]> var_91_cast_fp16_0, tensor<fp16, [1, 257, 1, 6, 64]> var_91_cast_fp16_1, tensor<fp16, [1, 257, 1, 6, 64]> var_91_cast_fp16_2 = split(axis = var_91_axis_0, split_sizes = var_91_split_sizes_0, x = qkv_1_cast_fp16)[name = tensor<string, []>("op_91_cast_fp16")];
            tensor<int32, [1]> squeeze_0_axes_0 = const()[name = tensor<string, []>("squeeze_0_axes_0"), val = tensor<int32, [1]>([2])];
            tensor<fp16, [1, 257, 6, 64]> squeeze_0_cast_fp16 = squeeze(axes = squeeze_0_axes_0, x = var_91_cast_fp16_0)[name = tensor<string, []>("squeeze_0_cast_fp16")];
            tensor<int32, [1]> squeeze_1_axes_0 = const()[name = tensor<string, []>("squeeze_1_axes_0"), val = tensor<int32, [1]>([2])];
            tensor<fp16, [1, 257, 6, 64]> squeeze_1_cast_fp16 = squeeze(axes = squeeze_1_axes_0, x = var_91_cast_fp16_1)[name = tensor<string, []>("squeeze_1_cast_fp16")];
            tensor<int32, [1]> squeeze_2_axes_0 = const()[name = tensor<string, []>("squeeze_2_axes_0"), val = tensor<int32, [1]>([2])];
            tensor<fp16, [1, 257, 6, 64]> squeeze_2_cast_fp16 = squeeze(axes = squeeze_2_axes_0, x = var_91_cast_fp16_2)[name = tensor<string, []>("squeeze_2_cast_fp16")];
            tensor<int32, [4]> v_1_perm_0 = const()[name = tensor<string, []>("v_1_perm_0"), val = tensor<int32, [4]>([0, 2, 1, 3])];
            tensor<fp16, []> mul_0_y_0_to_fp16 = const()[name = tensor<string, []>("mul_0_y_0_to_fp16"), val = tensor<fp16, []>(0x1p-3)];
            tensor<fp16, [1, 257, 6, 64]> mul_0_cast_fp16 = mul(x = squeeze_0_cast_fp16, y = mul_0_y_0_to_fp16)[name = tensor<string, []>("mul_0_cast_fp16")];
            tensor<bool, []> matmul_0_transpose_y_0 = const()[name = tensor<string, []>("matmul_0_transpose_y_0"), val = tensor<bool, []>(true)];
            tensor<bool, []> matmul_0_transpose_x_0 = const()[name = tensor<string, []>("matmul_0_transpose_x_0"), val = tensor<bool, []>(false)];
            tensor<int32, [4]> transpose_48_perm_0 = const()[name = tensor<string, []>("transpose_48_perm_0"), val = tensor<int32, [4]>([0, 2, -3, -1])];
            tensor<int32, [4]> transpose_49_perm_0 = const()[name = tensor<string, []>("transpose_49_perm_0"), val = tensor<int32, [4]>([0, 2, -3, -1])];
            tensor<fp16, [1, 6, 257, 64]> transpose_49 = transpose(perm = transpose_49_perm_0, x = squeeze_1_cast_fp16)[name = tensor<string, []>("transpose_117")];
            tensor<fp16, [1, 6, 257, 64]> transpose_48 = transpose(perm = transpose_48_perm_0, x = mul_0_cast_fp16)[name = tensor<string, []>("transpose_118")];
            tensor<fp16, [1, 6, 257, 257]> matmul_0_cast_fp16 = matmul(transpose_x = matmul_0_transpose_x_0, transpose_y = matmul_0_transpose_y_0, x = transpose_48, y = transpose_49)[name = tensor<string, []>("matmul_0_cast_fp16")];
            tensor<int32, []> softmax_0_axis_0 = const()[name = tensor<string, []>("softmax_0_axis_0"), val = tensor<int32, []>(-1)];
            tensor<fp16, [1, 6, 257, 257]> softmax_0_cast_fp16 = softmax(axis = softmax_0_axis_0, x = matmul_0_cast_fp16)[name = tensor<string, []>("softmax_0_cast_fp16")];
            tensor<bool, []> x_13_transpose_x_0 = const()[name = tensor<string, []>("x_13_transpose_x_0"), val = tensor<bool, []>(false)];
            tensor<bool, []> x_13_transpose_y_0 = const()[name = tensor<string, []>("x_13_transpose_y_0"), val = tensor<bool, []>(false)];
            tensor<fp16, [1, 6, 257, 64]> v_1_cast_fp16 = transpose(perm = v_1_perm_0, x = squeeze_2_cast_fp16)[name = tensor<string, []>("transpose_119")];
            tensor<fp16, [1, 6, 257, 64]> x_13_cast_fp16 = matmul(transpose_x = x_13_transpose_x_0, transpose_y = x_13_transpose_y_0, x = softmax_0_cast_fp16, y = v_1_cast_fp16)[name = tensor<string, []>("x_13_cast_fp16")];
            tensor<int32, [4]> var_99_perm_0 = const()[name = tensor<string, []>("op_99_perm_0"), val = tensor<int32, [4]>([0, 2, 1, 3])];
            tensor<int32, [3]> var_101 = const()[name = tensor<string, []>("op_101"), val = tensor<int32, [3]>([1, 257, 384])];
            tensor<fp16, [1, 257, 6, 64]> var_99_cast_fp16 = transpose(perm = var_99_perm_0, x = x_13_cast_fp16)[name = tensor<string, []>("transpose_116")];
            tensor<fp16, [1, 257, 384]> input_3_cast_fp16 = reshape(shape = var_101, x = var_99_cast_fp16)[name = tensor<string, []>("input_3_cast_fp16")];
            tensor<fp16, [384, 384]> backbone_blocks_0_attn_proj_weight_to_fp16 = const()[name = tensor<string, []>("backbone_blocks_0_attn_proj_weight_to_fp16"), val = tensor<fp16, [384, 384]>(BLOBFILE(path = tensor<string, []>("@model_path/weights/weight.bin"), offset = tensor<uint64, []>(1539648)))];
            tensor<fp16, [384]> backbone_blocks_0_attn_proj_bias_to_fp16 = const()[name = tensor<string, []>("backbone_blocks_0_attn_proj_bias_to_fp16"), val = tensor<fp16, [384]>(BLOBFILE(path = tensor<string, []>("@model_path/weights/weight.bin"), offset = tensor<uint64, []>(1834624)))];
            tensor<fp16, [1, 257, 384]> linear_1_cast_fp16 = linear(bias = backbone_blocks_0_attn_proj_bias_to_fp16, weight = backbone_blocks_0_attn_proj_weight_to_fp16, x = input_3_cast_fp16)[name = tensor<string, []>("linear_1_cast_fp16")];
            tensor<fp16, [384]> backbone_blocks_0_ls1_gamma_to_fp16 = const()[name = tensor<string, []>("backbone_blocks_0_ls1_gamma_to_fp16"), val = tensor<fp16, [384]>(BLOBFILE(path = tensor<string, []>("@model_path/weights/weight.bin"), offset = tensor<uint64, []>(1835456)))];
            tensor<fp16, [1, 257, 384]> var_108_cast_fp16 = mul(x = linear_1_cast_fp16, y = backbone_blocks_0_ls1_gamma_to_fp16)[name = tensor<string, []>("op_108_cast_fp16")];
            tensor<fp16, [1, 257, 384]> input_7_cast_fp16 = add(x = input_1_cast_fp16, y = var_108_cast_fp16)[name = tensor<string, []>("input_7_cast_fp16")];
            tensor<int32, [1]> input_9_axes_0 = const()[name = tensor<string, []>("input_9_axes_0"), val = tensor<int32, [1]>([-1])];
            tensor<fp16, [384]> backbone_blocks_0_norm2_weight_to_fp16 = const()[name = tensor<string, []>("backbone_blocks_0_norm2_weight_to_fp16"), val = tensor<fp16, [384]>(BLOBFILE(path = tensor<string, []>("@model_path/weights/weight.bin"), offset = tensor<uint64, []>(1836288)))];
            tensor<fp16, [384]> backbone_blocks_0_norm2_bias_to_fp16 = const()[name = tensor<string, []>("backbone_blocks_0_norm2_bias_to_fp16"), val = tensor<fp16, [384]>(BLOBFILE(path = tensor<string, []>("@model_path/weights/weight.bin"), offset = tensor<uint64, []>(1837120)))];
            tensor<fp16, [1, 257, 384]> input_9_cast_fp16 = layer_norm(axes = input_9_axes_0, beta = backbone_blocks_0_norm2_bias_to_fp16, epsilon = var_9_to_fp16, gamma = backbone_blocks_0_norm2_weight_to_fp16, x = input_7_cast_fp16)[name = tensor<string, []>("input_9_cast_fp16")];
            tensor<fp16, [1536, 384]> backbone_blocks_0_mlp_fc1_weight_to_fp16 = const()[name = tensor<string, []>("backbone_blocks_0_mlp_fc1_weight_to_fp16"), val = tensor<fp16, [1536, 384]>(BLOBFILE(path = tensor<string, []>("@model_path/weights/weight.bin"), offset = tensor<uint64, []>(1837952)))];
            tensor<fp16, [1536]> backbone_blocks_0_mlp_fc1_bias_to_fp16 = const()[name = tensor<string, []>("backbone_blocks_0_mlp_fc1_bias_to_fp16"), val = tensor<fp16, [1536]>(BLOBFILE(path = tensor<string, []>("@model_path/weights/weight.bin"), offset = tensor<uint64, []>(3017664)))];
            tensor<fp16, [1, 257, 1536]> linear_2_cast_fp16 = linear(bias = backbone_blocks_0_mlp_fc1_bias_to_fp16, weight = backbone_blocks_0_mlp_fc1_weight_to_fp16, x = input_9_cast_fp16)[name = tensor<string, []>("linear_2_cast_fp16")];
            tensor<string, []> input_13_mode_0 = const()[name = tensor<string, []>("input_13_mode_0"), val = tensor<string, []>("EXACT")];
            tensor<fp16, [1, 257, 1536]> input_13_cast_fp16 = gelu(mode = input_13_mode_0, x = linear_2_cast_fp16)[name = tensor<string, []>("input_13_cast_fp16")];
            tensor<fp16, [384, 1536]> backbone_blocks_0_mlp_fc2_weight_to_fp16 = const()[name = tensor<string, []>("backbone_blocks_0_mlp_fc2_weight_to_fp16"), val = tensor<fp16, [384, 1536]>(BLOBFILE(path = tensor<string, []>("@model_path/weights/weight.bin"), offset = tensor<uint64, []>(3020800)))];
            tensor<fp16, [384]> backbone_blocks_0_mlp_fc2_bias_to_fp16 = const()[name = tensor<string, []>("backbone_blocks_0_mlp_fc2_bias_to_fp16"), val = tensor<fp16, [384]>(BLOBFILE(path = tensor<string, []>("@model_path/weights/weight.bin"), offset = tensor<uint64, []>(4200512)))];
            tensor<fp16, [1, 257, 384]> linear_3_cast_fp16 = linear(bias = backbone_blocks_0_mlp_fc2_bias_to_fp16, weight = backbone_blocks_0_mlp_fc2_weight_to_fp16, x = input_13_cast_fp16)[name = tensor<string, []>("linear_3_cast_fp16")];
            tensor<fp16, [384]> backbone_blocks_0_ls2_gamma_to_fp16 = const()[name = tensor<string, []>("backbone_blocks_0_ls2_gamma_to_fp16"), val = tensor<fp16, [384]>(BLOBFILE(path = tensor<string, []>("@model_path/weights/weight.bin"), offset = tensor<uint64, []>(4201344)))];
            tensor<fp16, [1, 257, 384]> var_126_cast_fp16 = mul(x = linear_3_cast_fp16, y = backbone_blocks_0_ls2_gamma_to_fp16)[name = tensor<string, []>("op_126_cast_fp16")];
            tensor<fp16, [1, 257, 384]> input_19_cast_fp16 = add(x = input_7_cast_fp16, y = var_126_cast_fp16)[name = tensor<string, []>("input_19_cast_fp16")];
            tensor<int32, [1]> x_19_axes_0 = const()[name = tensor<string, []>("x_19_axes_0"), val = tensor<int32, [1]>([-1])];
            tensor<fp16, [384]> backbone_blocks_1_norm1_weight_to_fp16 = const()[name = tensor<string, []>("backbone_blocks_1_norm1_weight_to_fp16"), val = tensor<fp16, [384]>(BLOBFILE(path = tensor<string, []>("@model_path/weights/weight.bin"), offset = tensor<uint64, []>(4202176)))];
            tensor<fp16, [384]> backbone_blocks_1_norm1_bias_to_fp16 = const()[name = tensor<string, []>("backbone_blocks_1_norm1_bias_to_fp16"), val = tensor<fp16, [384]>(BLOBFILE(path = tensor<string, []>("@model_path/weights/weight.bin"), offset = tensor<uint64, []>(4203008)))];
            tensor<fp16, [1, 257, 384]> x_19_cast_fp16 = layer_norm(axes = x_19_axes_0, beta = backbone_blocks_1_norm1_bias_to_fp16, epsilon = var_9_to_fp16, gamma = backbone_blocks_1_norm1_weight_to_fp16, x = input_19_cast_fp16)[name = tensor<string, []>("x_19_cast_fp16")];
            tensor<fp16, [1152, 384]> backbone_blocks_1_attn_qkv_weight_to_fp16 = const()[name = tensor<string, []>("backbone_blocks_1_attn_qkv_weight_to_fp16"), val = tensor<fp16, [1152, 384]>(BLOBFILE(path = tensor<string, []>("@model_path/weights/weight.bin"), offset = tensor<uint64, []>(4203840)))];
            tensor<fp16, [1152]> backbone_blocks_1_attn_qkv_bias_to_fp16 = const()[name = tensor<string, []>("backbone_blocks_1_attn_qkv_bias_to_fp16"), val = tensor<fp16, [1152]>(BLOBFILE(path = tensor<string, []>("@model_path/weights/weight.bin"), offset = tensor<uint64, []>(5088640)))];
            tensor<fp16, [1, 257, 1152]> linear_4_cast_fp16 = linear(bias = backbone_blocks_1_attn_qkv_bias_to_fp16, weight = backbone_blocks_1_attn_qkv_weight_to_fp16, x = x_19_cast_fp16)[name = tensor<string, []>("linear_4_cast_fp16")];
            tensor<int32, [5]> var_149 = const()[name = tensor<string, []>("op_149"), val = tensor<int32, [5]>([1, 257, 3, 6, 64])];
            tensor<fp16, [1, 257, 3, 6, 64]> qkv_3_cast_fp16 = reshape(shape = var_149, x = linear_4_cast_fp16)[name = tensor<string, []>("qkv_3_cast_fp16")];
            tensor<int32, [3]> var_151_split_sizes_0 = const()[name = tensor<string, []>("op_151_split_sizes_0"), val = tensor<int32, [3]>([1, 1, 1])];
            tensor<int32, []> var_151_axis_0 = const()[name = tensor<string, []>("op_151_axis_0"), val = tensor<int32, []>(2)];
            tensor<fp16, [1, 257, 1, 6, 64]> var_151_cast_fp16_0, tensor<fp16, [1, 257, 1, 6, 64]> var_151_cast_fp16_1, tensor<fp16, [1, 257, 1, 6, 64]> var_151_cast_fp16_2 = split(axis = var_151_axis_0, split_sizes = var_151_split_sizes_0, x = qkv_3_cast_fp16)[name = tensor<string, []>("op_151_cast_fp16")];
            tensor<int32, [1]> squeeze_3_axes_0 = const()[name = tensor<string, []>("squeeze_3_axes_0"), val = tensor<int32, [1]>([2])];
            tensor<fp16, [1, 257, 6, 64]> squeeze_3_cast_fp16 = squeeze(axes = squeeze_3_axes_0, x = var_151_cast_fp16_0)[name = tensor<string, []>("squeeze_3_cast_fp16")];
            tensor<int32, [1]> squeeze_4_axes_0 = const()[name = tensor<string, []>("squeeze_4_axes_0"), val = tensor<int32, [1]>([2])];
            tensor<fp16, [1, 257, 6, 64]> squeeze_4_cast_fp16 = squeeze(axes = squeeze_4_axes_0, x = var_151_cast_fp16_1)[name = tensor<string, []>("squeeze_4_cast_fp16")];
            tensor<int32, [1]> squeeze_5_axes_0 = const()[name = tensor<string, []>("squeeze_5_axes_0"), val = tensor<int32, [1]>([2])];
            tensor<fp16, [1, 257, 6, 64]> squeeze_5_cast_fp16 = squeeze(axes = squeeze_5_axes_0, x = var_151_cast_fp16_2)[name = tensor<string, []>("squeeze_5_cast_fp16")];
            tensor<int32, [4]> v_3_perm_0 = const()[name = tensor<string, []>("v_3_perm_0"), val = tensor<int32, [4]>([0, 2, 1, 3])];
            tensor<fp16, []> mul_1_y_0_to_fp16 = const()[name = tensor<string, []>("mul_1_y_0_to_fp16"), val = tensor<fp16, []>(0x1p-3)];
            tensor<fp16, [1, 257, 6, 64]> mul_1_cast_fp16 = mul(x = squeeze_3_cast_fp16, y = mul_1_y_0_to_fp16)[name = tensor<string, []>("mul_1_cast_fp16")];
            tensor<bool, []> matmul_1_transpose_y_0 = const()[name = tensor<string, []>("matmul_1_transpose_y_0"), val = tensor<bool, []>(true)];
            tensor<bool, []> matmul_1_transpose_x_0 = const()[name = tensor<string, []>("matmul_1_transpose_x_0"), val = tensor<bool, []>(false)];
            tensor<int32, [4]> transpose_50_perm_0 = const()[name = tensor<string, []>("transpose_50_perm_0"), val = tensor<int32, [4]>([0, 2, -3, -1])];
            tensor<int32, [4]> transpose_51_perm_0 = const()[name = tensor<string, []>("transpose_51_perm_0"), val = tensor<int32, [4]>([0, 2, -3, -1])];
            tensor<fp16, [1, 6, 257, 64]> transpose_51 = transpose(perm = transpose_51_perm_0, x = squeeze_4_cast_fp16)[name = tensor<string, []>("transpose_113")];
            tensor<fp16, [1, 6, 257, 64]> transpose_50 = transpose(perm = transpose_50_perm_0, x = mul_1_cast_fp16)[name = tensor<string, []>("transpose_114")];
            tensor<fp16, [1, 6, 257, 257]> matmul_1_cast_fp16 = matmul(transpose_x = matmul_1_transpose_x_0, transpose_y = matmul_1_transpose_y_0, x = transpose_50, y = transpose_51)[name = tensor<string, []>("matmul_1_cast_fp16")];
            tensor<int32, []> softmax_1_axis_0 = const()[name = tensor<string, []>("softmax_1_axis_0"), val = tensor<int32, []>(-1)];
            tensor<fp16, [1, 6, 257, 257]> softmax_1_cast_fp16 = softmax(axis = softmax_1_axis_0, x = matmul_1_cast_fp16)[name = tensor<string, []>("softmax_1_cast_fp16")];
            tensor<bool, []> x_21_transpose_x_0 = const()[name = tensor<string, []>("x_21_transpose_x_0"), val = tensor<bool, []>(false)];
            tensor<bool, []> x_21_transpose_y_0 = const()[name = tensor<string, []>("x_21_transpose_y_0"), val = tensor<bool, []>(false)];
            tensor<fp16, [1, 6, 257, 64]> v_3_cast_fp16 = transpose(perm = v_3_perm_0, x = squeeze_5_cast_fp16)[name = tensor<string, []>("transpose_115")];
            tensor<fp16, [1, 6, 257, 64]> x_21_cast_fp16 = matmul(transpose_x = x_21_transpose_x_0, transpose_y = x_21_transpose_y_0, x = softmax_1_cast_fp16, y = v_3_cast_fp16)[name = tensor<string, []>("x_21_cast_fp16")];
            tensor<int32, [4]> var_159_perm_0 = const()[name = tensor<string, []>("op_159_perm_0"), val = tensor<int32, [4]>([0, 2, 1, 3])];
            tensor<int32, [3]> var_161 = const()[name = tensor<string, []>("op_161"), val = tensor<int32, [3]>([1, 257, 384])];
            tensor<fp16, [1, 257, 6, 64]> var_159_cast_fp16 = transpose(perm = var_159_perm_0, x = x_21_cast_fp16)[name = tensor<string, []>("transpose_112")];
            tensor<fp16, [1, 257, 384]> input_21_cast_fp16 = reshape(shape = var_161, x = var_159_cast_fp16)[name = tensor<string, []>("input_21_cast_fp16")];
            tensor<fp16, [384, 384]> backbone_blocks_1_attn_proj_weight_to_fp16 = const()[name = tensor<string, []>("backbone_blocks_1_attn_proj_weight_to_fp16"), val = tensor<fp16, [384, 384]>(BLOBFILE(path = tensor<string, []>("@model_path/weights/weight.bin"), offset = tensor<uint64, []>(5091008)))];
            tensor<fp16, [384]> backbone_blocks_1_attn_proj_bias_to_fp16 = const()[name = tensor<string, []>("backbone_blocks_1_attn_proj_bias_to_fp16"), val = tensor<fp16, [384]>(BLOBFILE(path = tensor<string, []>("@model_path/weights/weight.bin"), offset = tensor<uint64, []>(5385984)))];
            tensor<fp16, [1, 257, 384]> linear_5_cast_fp16 = linear(bias = backbone_blocks_1_attn_proj_bias_to_fp16, weight = backbone_blocks_1_attn_proj_weight_to_fp16, x = input_21_cast_fp16)[name = tensor<string, []>("linear_5_cast_fp16")];
            tensor<fp16, [384]> backbone_blocks_1_ls1_gamma_to_fp16 = const()[name = tensor<string, []>("backbone_blocks_1_ls1_gamma_to_fp16"), val = tensor<fp16, [384]>(BLOBFILE(path = tensor<string, []>("@model_path/weights/weight.bin"), offset = tensor<uint64, []>(5386816)))];
            tensor<fp16, [1, 257, 384]> var_168_cast_fp16 = mul(x = linear_5_cast_fp16, y = backbone_blocks_1_ls1_gamma_to_fp16)[name = tensor<string, []>("op_168_cast_fp16")];
            tensor<fp16, [1, 257, 384]> input_25_cast_fp16 = add(x = input_19_cast_fp16, y = var_168_cast_fp16)[name = tensor<string, []>("input_25_cast_fp16")];
            tensor<int32, [1]> input_27_axes_0 = const()[name = tensor<string, []>("input_27_axes_0"), val = tensor<int32, [1]>([-1])];
            tensor<fp16, [384]> backbone_blocks_1_norm2_weight_to_fp16 = const()[name = tensor<string, []>("backbone_blocks_1_norm2_weight_to_fp16"), val = tensor<fp16, [384]>(BLOBFILE(path = tensor<string, []>("@model_path/weights/weight.bin"), offset = tensor<uint64, []>(5387648)))];
            tensor<fp16, [384]> backbone_blocks_1_norm2_bias_to_fp16 = const()[name = tensor<string, []>("backbone_blocks_1_norm2_bias_to_fp16"), val = tensor<fp16, [384]>(BLOBFILE(path = tensor<string, []>("@model_path/weights/weight.bin"), offset = tensor<uint64, []>(5388480)))];
            tensor<fp16, [1, 257, 384]> input_27_cast_fp16 = layer_norm(axes = input_27_axes_0, beta = backbone_blocks_1_norm2_bias_to_fp16, epsilon = var_9_to_fp16, gamma = backbone_blocks_1_norm2_weight_to_fp16, x = input_25_cast_fp16)[name = tensor<string, []>("input_27_cast_fp16")];
            tensor<fp16, [1536, 384]> backbone_blocks_1_mlp_fc1_weight_to_fp16 = const()[name = tensor<string, []>("backbone_blocks_1_mlp_fc1_weight_to_fp16"), val = tensor<fp16, [1536, 384]>(BLOBFILE(path = tensor<string, []>("@model_path/weights/weight.bin"), offset = tensor<uint64, []>(5389312)))];
            tensor<fp16, [1536]> backbone_blocks_1_mlp_fc1_bias_to_fp16 = const()[name = tensor<string, []>("backbone_blocks_1_mlp_fc1_bias_to_fp16"), val = tensor<fp16, [1536]>(BLOBFILE(path = tensor<string, []>("@model_path/weights/weight.bin"), offset = tensor<uint64, []>(6569024)))];
            tensor<fp16, [1, 257, 1536]> linear_6_cast_fp16 = linear(bias = backbone_blocks_1_mlp_fc1_bias_to_fp16, weight = backbone_blocks_1_mlp_fc1_weight_to_fp16, x = input_27_cast_fp16)[name = tensor<string, []>("linear_6_cast_fp16")];
            tensor<string, []> input_31_mode_0 = const()[name = tensor<string, []>("input_31_mode_0"), val = tensor<string, []>("EXACT")];
            tensor<fp16, [1, 257, 1536]> input_31_cast_fp16 = gelu(mode = input_31_mode_0, x = linear_6_cast_fp16)[name = tensor<string, []>("input_31_cast_fp16")];
            tensor<fp16, [384, 1536]> backbone_blocks_1_mlp_fc2_weight_to_fp16 = const()[name = tensor<string, []>("backbone_blocks_1_mlp_fc2_weight_to_fp16"), val = tensor<fp16, [384, 1536]>(BLOBFILE(path = tensor<string, []>("@model_path/weights/weight.bin"), offset = tensor<uint64, []>(6572160)))];
            tensor<fp16, [384]> backbone_blocks_1_mlp_fc2_bias_to_fp16 = const()[name = tensor<string, []>("backbone_blocks_1_mlp_fc2_bias_to_fp16"), val = tensor<fp16, [384]>(BLOBFILE(path = tensor<string, []>("@model_path/weights/weight.bin"), offset = tensor<uint64, []>(7751872)))];
            tensor<fp16, [1, 257, 384]> linear_7_cast_fp16 = linear(bias = backbone_blocks_1_mlp_fc2_bias_to_fp16, weight = backbone_blocks_1_mlp_fc2_weight_to_fp16, x = input_31_cast_fp16)[name = tensor<string, []>("linear_7_cast_fp16")];
            tensor<fp16, [384]> backbone_blocks_1_ls2_gamma_to_fp16 = const()[name = tensor<string, []>("backbone_blocks_1_ls2_gamma_to_fp16"), val = tensor<fp16, [384]>(BLOBFILE(path = tensor<string, []>("@model_path/weights/weight.bin"), offset = tensor<uint64, []>(7752704)))];
            tensor<fp16, [1, 257, 384]> var_186_cast_fp16 = mul(x = linear_7_cast_fp16, y = backbone_blocks_1_ls2_gamma_to_fp16)[name = tensor<string, []>("op_186_cast_fp16")];
            tensor<fp16, [1, 257, 384]> input_37_cast_fp16 = add(x = input_25_cast_fp16, y = var_186_cast_fp16)[name = tensor<string, []>("input_37_cast_fp16")];
            tensor<int32, [1]> x_27_axes_0 = const()[name = tensor<string, []>("x_27_axes_0"), val = tensor<int32, [1]>([-1])];
            tensor<fp16, [384]> backbone_blocks_2_norm1_weight_to_fp16 = const()[name = tensor<string, []>("backbone_blocks_2_norm1_weight_to_fp16"), val = tensor<fp16, [384]>(BLOBFILE(path = tensor<string, []>("@model_path/weights/weight.bin"), offset = tensor<uint64, []>(7753536)))];
            tensor<fp16, [384]> backbone_blocks_2_norm1_bias_to_fp16 = const()[name = tensor<string, []>("backbone_blocks_2_norm1_bias_to_fp16"), val = tensor<fp16, [384]>(BLOBFILE(path = tensor<string, []>("@model_path/weights/weight.bin"), offset = tensor<uint64, []>(7754368)))];
            tensor<fp16, [1, 257, 384]> x_27_cast_fp16 = layer_norm(axes = x_27_axes_0, beta = backbone_blocks_2_norm1_bias_to_fp16, epsilon = var_9_to_fp16, gamma = backbone_blocks_2_norm1_weight_to_fp16, x = input_37_cast_fp16)[name = tensor<string, []>("x_27_cast_fp16")];
            tensor<fp16, [1152, 384]> backbone_blocks_2_attn_qkv_weight_to_fp16 = const()[name = tensor<string, []>("backbone_blocks_2_attn_qkv_weight_to_fp16"), val = tensor<fp16, [1152, 384]>(BLOBFILE(path = tensor<string, []>("@model_path/weights/weight.bin"), offset = tensor<uint64, []>(7755200)))];
            tensor<fp16, [1152]> backbone_blocks_2_attn_qkv_bias_to_fp16 = const()[name = tensor<string, []>("backbone_blocks_2_attn_qkv_bias_to_fp16"), val = tensor<fp16, [1152]>(BLOBFILE(path = tensor<string, []>("@model_path/weights/weight.bin"), offset = tensor<uint64, []>(8640000)))];
            tensor<fp16, [1, 257, 1152]> linear_8_cast_fp16 = linear(bias = backbone_blocks_2_attn_qkv_bias_to_fp16, weight = backbone_blocks_2_attn_qkv_weight_to_fp16, x = x_27_cast_fp16)[name = tensor<string, []>("linear_8_cast_fp16")];
            tensor<int32, [5]> var_209 = const()[name = tensor<string, []>("op_209"), val = tensor<int32, [5]>([1, 257, 3, 6, 64])];
            tensor<fp16, [1, 257, 3, 6, 64]> qkv_5_cast_fp16 = reshape(shape = var_209, x = linear_8_cast_fp16)[name = tensor<string, []>("qkv_5_cast_fp16")];
            tensor<int32, [3]> var_211_split_sizes_0 = const()[name = tensor<string, []>("op_211_split_sizes_0"), val = tensor<int32, [3]>([1, 1, 1])];
            tensor<int32, []> var_211_axis_0 = const()[name = tensor<string, []>("op_211_axis_0"), val = tensor<int32, []>(2)];
            tensor<fp16, [1, 257, 1, 6, 64]> var_211_cast_fp16_0, tensor<fp16, [1, 257, 1, 6, 64]> var_211_cast_fp16_1, tensor<fp16, [1, 257, 1, 6, 64]> var_211_cast_fp16_2 = split(axis = var_211_axis_0, split_sizes = var_211_split_sizes_0, x = qkv_5_cast_fp16)[name = tensor<string, []>("op_211_cast_fp16")];
            tensor<int32, [1]> squeeze_6_axes_0 = const()[name = tensor<string, []>("squeeze_6_axes_0"), val = tensor<int32, [1]>([2])];
            tensor<fp16, [1, 257, 6, 64]> squeeze_6_cast_fp16 = squeeze(axes = squeeze_6_axes_0, x = var_211_cast_fp16_0)[name = tensor<string, []>("squeeze_6_cast_fp16")];
            tensor<int32, [1]> squeeze_7_axes_0 = const()[name = tensor<string, []>("squeeze_7_axes_0"), val = tensor<int32, [1]>([2])];
            tensor<fp16, [1, 257, 6, 64]> squeeze_7_cast_fp16 = squeeze(axes = squeeze_7_axes_0, x = var_211_cast_fp16_1)[name = tensor<string, []>("squeeze_7_cast_fp16")];
            tensor<int32, [1]> squeeze_8_axes_0 = const()[name = tensor<string, []>("squeeze_8_axes_0"), val = tensor<int32, [1]>([2])];
            tensor<fp16, [1, 257, 6, 64]> squeeze_8_cast_fp16 = squeeze(axes = squeeze_8_axes_0, x = var_211_cast_fp16_2)[name = tensor<string, []>("squeeze_8_cast_fp16")];
            tensor<int32, [4]> v_5_perm_0 = const()[name = tensor<string, []>("v_5_perm_0"), val = tensor<int32, [4]>([0, 2, 1, 3])];
            tensor<fp16, []> mul_2_y_0_to_fp16 = const()[name = tensor<string, []>("mul_2_y_0_to_fp16"), val = tensor<fp16, []>(0x1p-3)];
            tensor<fp16, [1, 257, 6, 64]> mul_2_cast_fp16 = mul(x = squeeze_6_cast_fp16, y = mul_2_y_0_to_fp16)[name = tensor<string, []>("mul_2_cast_fp16")];
            tensor<bool, []> matmul_2_transpose_y_0 = const()[name = tensor<string, []>("matmul_2_transpose_y_0"), val = tensor<bool, []>(true)];
            tensor<bool, []> matmul_2_transpose_x_0 = const()[name = tensor<string, []>("matmul_2_transpose_x_0"), val = tensor<bool, []>(false)];
            tensor<int32, [4]> transpose_52_perm_0 = const()[name = tensor<string, []>("transpose_52_perm_0"), val = tensor<int32, [4]>([0, 2, -3, -1])];
            tensor<int32, [4]> transpose_53_perm_0 = const()[name = tensor<string, []>("transpose_53_perm_0"), val = tensor<int32, [4]>([0, 2, -3, -1])];
            tensor<fp16, [1, 6, 257, 64]> transpose_53 = transpose(perm = transpose_53_perm_0, x = squeeze_7_cast_fp16)[name = tensor<string, []>("transpose_109")];
            tensor<fp16, [1, 6, 257, 64]> transpose_52 = transpose(perm = transpose_52_perm_0, x = mul_2_cast_fp16)[name = tensor<string, []>("transpose_110")];
            tensor<fp16, [1, 6, 257, 257]> matmul_2_cast_fp16 = matmul(transpose_x = matmul_2_transpose_x_0, transpose_y = matmul_2_transpose_y_0, x = transpose_52, y = transpose_53)[name = tensor<string, []>("matmul_2_cast_fp16")];
            tensor<int32, []> softmax_2_axis_0 = const()[name = tensor<string, []>("softmax_2_axis_0"), val = tensor<int32, []>(-1)];
            tensor<fp16, [1, 6, 257, 257]> softmax_2_cast_fp16 = softmax(axis = softmax_2_axis_0, x = matmul_2_cast_fp16)[name = tensor<string, []>("softmax_2_cast_fp16")];
            tensor<bool, []> x_29_transpose_x_0 = const()[name = tensor<string, []>("x_29_transpose_x_0"), val = tensor<bool, []>(false)];
            tensor<bool, []> x_29_transpose_y_0 = const()[name = tensor<string, []>("x_29_transpose_y_0"), val = tensor<bool, []>(false)];
            tensor<fp16, [1, 6, 257, 64]> v_5_cast_fp16 = transpose(perm = v_5_perm_0, x = squeeze_8_cast_fp16)[name = tensor<string, []>("transpose_111")];
            tensor<fp16, [1, 6, 257, 64]> x_29_cast_fp16 = matmul(transpose_x = x_29_transpose_x_0, transpose_y = x_29_transpose_y_0, x = softmax_2_cast_fp16, y = v_5_cast_fp16)[name = tensor<string, []>("x_29_cast_fp16")];
            tensor<int32, [4]> var_219_perm_0 = const()[name = tensor<string, []>("op_219_perm_0"), val = tensor<int32, [4]>([0, 2, 1, 3])];
            tensor<int32, [3]> var_221 = const()[name = tensor<string, []>("op_221"), val = tensor<int32, [3]>([1, 257, 384])];
            tensor<fp16, [1, 257, 6, 64]> var_219_cast_fp16 = transpose(perm = var_219_perm_0, x = x_29_cast_fp16)[name = tensor<string, []>("transpose_108")];
            tensor<fp16, [1, 257, 384]> input_39_cast_fp16 = reshape(shape = var_221, x = var_219_cast_fp16)[name = tensor<string, []>("input_39_cast_fp16")];
            tensor<fp16, [384, 384]> backbone_blocks_2_attn_proj_weight_to_fp16 = const()[name = tensor<string, []>("backbone_blocks_2_attn_proj_weight_to_fp16"), val = tensor<fp16, [384, 384]>(BLOBFILE(path = tensor<string, []>("@model_path/weights/weight.bin"), offset = tensor<uint64, []>(8642368)))];
            tensor<fp16, [384]> backbone_blocks_2_attn_proj_bias_to_fp16 = const()[name = tensor<string, []>("backbone_blocks_2_attn_proj_bias_to_fp16"), val = tensor<fp16, [384]>(BLOBFILE(path = tensor<string, []>("@model_path/weights/weight.bin"), offset = tensor<uint64, []>(8937344)))];
            tensor<fp16, [1, 257, 384]> linear_9_cast_fp16 = linear(bias = backbone_blocks_2_attn_proj_bias_to_fp16, weight = backbone_blocks_2_attn_proj_weight_to_fp16, x = input_39_cast_fp16)[name = tensor<string, []>("linear_9_cast_fp16")];
            tensor<fp16, [384]> backbone_blocks_2_ls1_gamma_to_fp16 = const()[name = tensor<string, []>("backbone_blocks_2_ls1_gamma_to_fp16"), val = tensor<fp16, [384]>(BLOBFILE(path = tensor<string, []>("@model_path/weights/weight.bin"), offset = tensor<uint64, []>(8938176)))];
            tensor<fp16, [1, 257, 384]> var_228_cast_fp16 = mul(x = linear_9_cast_fp16, y = backbone_blocks_2_ls1_gamma_to_fp16)[name = tensor<string, []>("op_228_cast_fp16")];
            tensor<fp16, [1, 257, 384]> input_43_cast_fp16 = add(x = input_37_cast_fp16, y = var_228_cast_fp16)[name = tensor<string, []>("input_43_cast_fp16")];
            tensor<int32, [1]> input_45_axes_0 = const()[name = tensor<string, []>("input_45_axes_0"), val = tensor<int32, [1]>([-1])];
            tensor<fp16, [384]> backbone_blocks_2_norm2_weight_to_fp16 = const()[name = tensor<string, []>("backbone_blocks_2_norm2_weight_to_fp16"), val = tensor<fp16, [384]>(BLOBFILE(path = tensor<string, []>("@model_path/weights/weight.bin"), offset = tensor<uint64, []>(8939008)))];
            tensor<fp16, [384]> backbone_blocks_2_norm2_bias_to_fp16 = const()[name = tensor<string, []>("backbone_blocks_2_norm2_bias_to_fp16"), val = tensor<fp16, [384]>(BLOBFILE(path = tensor<string, []>("@model_path/weights/weight.bin"), offset = tensor<uint64, []>(8939840)))];
            tensor<fp16, [1, 257, 384]> input_45_cast_fp16 = layer_norm(axes = input_45_axes_0, beta = backbone_blocks_2_norm2_bias_to_fp16, epsilon = var_9_to_fp16, gamma = backbone_blocks_2_norm2_weight_to_fp16, x = input_43_cast_fp16)[name = tensor<string, []>("input_45_cast_fp16")];
            tensor<fp16, [1536, 384]> backbone_blocks_2_mlp_fc1_weight_to_fp16 = const()[name = tensor<string, []>("backbone_blocks_2_mlp_fc1_weight_to_fp16"), val = tensor<fp16, [1536, 384]>(BLOBFILE(path = tensor<string, []>("@model_path/weights/weight.bin"), offset = tensor<uint64, []>(8940672)))];
            tensor<fp16, [1536]> backbone_blocks_2_mlp_fc1_bias_to_fp16 = const()[name = tensor<string, []>("backbone_blocks_2_mlp_fc1_bias_to_fp16"), val = tensor<fp16, [1536]>(BLOBFILE(path = tensor<string, []>("@model_path/weights/weight.bin"), offset = tensor<uint64, []>(10120384)))];
            tensor<fp16, [1, 257, 1536]> linear_10_cast_fp16 = linear(bias = backbone_blocks_2_mlp_fc1_bias_to_fp16, weight = backbone_blocks_2_mlp_fc1_weight_to_fp16, x = input_45_cast_fp16)[name = tensor<string, []>("linear_10_cast_fp16")];
            tensor<string, []> input_49_mode_0 = const()[name = tensor<string, []>("input_49_mode_0"), val = tensor<string, []>("EXACT")];
            tensor<fp16, [1, 257, 1536]> input_49_cast_fp16 = gelu(mode = input_49_mode_0, x = linear_10_cast_fp16)[name = tensor<string, []>("input_49_cast_fp16")];
            tensor<fp16, [384, 1536]> backbone_blocks_2_mlp_fc2_weight_to_fp16 = const()[name = tensor<string, []>("backbone_blocks_2_mlp_fc2_weight_to_fp16"), val = tensor<fp16, [384, 1536]>(BLOBFILE(path = tensor<string, []>("@model_path/weights/weight.bin"), offset = tensor<uint64, []>(10123520)))];
            tensor<fp16, [384]> backbone_blocks_2_mlp_fc2_bias_to_fp16 = const()[name = tensor<string, []>("backbone_blocks_2_mlp_fc2_bias_to_fp16"), val = tensor<fp16, [384]>(BLOBFILE(path = tensor<string, []>("@model_path/weights/weight.bin"), offset = tensor<uint64, []>(11303232)))];
            tensor<fp16, [1, 257, 384]> linear_11_cast_fp16 = linear(bias = backbone_blocks_2_mlp_fc2_bias_to_fp16, weight = backbone_blocks_2_mlp_fc2_weight_to_fp16, x = input_49_cast_fp16)[name = tensor<string, []>("linear_11_cast_fp16")];
            tensor<fp16, [384]> backbone_blocks_2_ls2_gamma_to_fp16 = const()[name = tensor<string, []>("backbone_blocks_2_ls2_gamma_to_fp16"), val = tensor<fp16, [384]>(BLOBFILE(path = tensor<string, []>("@model_path/weights/weight.bin"), offset = tensor<uint64, []>(11304064)))];
            tensor<fp16, [1, 257, 384]> var_246_cast_fp16 = mul(x = linear_11_cast_fp16, y = backbone_blocks_2_ls2_gamma_to_fp16)[name = tensor<string, []>("op_246_cast_fp16")];
            tensor<fp16, [1, 257, 384]> input_55_cast_fp16 = add(x = input_43_cast_fp16, y = var_246_cast_fp16)[name = tensor<string, []>("input_55_cast_fp16")];
            tensor<int32, [1]> x_35_axes_0 = const()[name = tensor<string, []>("x_35_axes_0"), val = tensor<int32, [1]>([-1])];
            tensor<fp16, [384]> backbone_blocks_3_norm1_weight_to_fp16 = const()[name = tensor<string, []>("backbone_blocks_3_norm1_weight_to_fp16"), val = tensor<fp16, [384]>(BLOBFILE(path = tensor<string, []>("@model_path/weights/weight.bin"), offset = tensor<uint64, []>(11304896)))];
            tensor<fp16, [384]> backbone_blocks_3_norm1_bias_to_fp16 = const()[name = tensor<string, []>("backbone_blocks_3_norm1_bias_to_fp16"), val = tensor<fp16, [384]>(BLOBFILE(path = tensor<string, []>("@model_path/weights/weight.bin"), offset = tensor<uint64, []>(11305728)))];
            tensor<fp16, [1, 257, 384]> x_35_cast_fp16 = layer_norm(axes = x_35_axes_0, beta = backbone_blocks_3_norm1_bias_to_fp16, epsilon = var_9_to_fp16, gamma = backbone_blocks_3_norm1_weight_to_fp16, x = input_55_cast_fp16)[name = tensor<string, []>("x_35_cast_fp16")];
            tensor<fp16, [1152, 384]> backbone_blocks_3_attn_qkv_weight_to_fp16 = const()[name = tensor<string, []>("backbone_blocks_3_attn_qkv_weight_to_fp16"), val = tensor<fp16, [1152, 384]>(BLOBFILE(path = tensor<string, []>("@model_path/weights/weight.bin"), offset = tensor<uint64, []>(11306560)))];
            tensor<fp16, [1152]> backbone_blocks_3_attn_qkv_bias_to_fp16 = const()[name = tensor<string, []>("backbone_blocks_3_attn_qkv_bias_to_fp16"), val = tensor<fp16, [1152]>(BLOBFILE(path = tensor<string, []>("@model_path/weights/weight.bin"), offset = tensor<uint64, []>(12191360)))];
            tensor<fp16, [1, 257, 1152]> linear_12_cast_fp16 = linear(bias = backbone_blocks_3_attn_qkv_bias_to_fp16, weight = backbone_blocks_3_attn_qkv_weight_to_fp16, x = x_35_cast_fp16)[name = tensor<string, []>("linear_12_cast_fp16")];
            tensor<int32, [5]> var_269 = const()[name = tensor<string, []>("op_269"), val = tensor<int32, [5]>([1, 257, 3, 6, 64])];
            tensor<fp16, [1, 257, 3, 6, 64]> qkv_7_cast_fp16 = reshape(shape = var_269, x = linear_12_cast_fp16)[name = tensor<string, []>("qkv_7_cast_fp16")];
            tensor<int32, [3]> var_271_split_sizes_0 = const()[name = tensor<string, []>("op_271_split_sizes_0"), val = tensor<int32, [3]>([1, 1, 1])];
            tensor<int32, []> var_271_axis_0 = const()[name = tensor<string, []>("op_271_axis_0"), val = tensor<int32, []>(2)];
            tensor<fp16, [1, 257, 1, 6, 64]> var_271_cast_fp16_0, tensor<fp16, [1, 257, 1, 6, 64]> var_271_cast_fp16_1, tensor<fp16, [1, 257, 1, 6, 64]> var_271_cast_fp16_2 = split(axis = var_271_axis_0, split_sizes = var_271_split_sizes_0, x = qkv_7_cast_fp16)[name = tensor<string, []>("op_271_cast_fp16")];
            tensor<int32, [1]> squeeze_9_axes_0 = const()[name = tensor<string, []>("squeeze_9_axes_0"), val = tensor<int32, [1]>([2])];
            tensor<fp16, [1, 257, 6, 64]> squeeze_9_cast_fp16 = squeeze(axes = squeeze_9_axes_0, x = var_271_cast_fp16_0)[name = tensor<string, []>("squeeze_9_cast_fp16")];
            tensor<int32, [1]> squeeze_10_axes_0 = const()[name = tensor<string, []>("squeeze_10_axes_0"), val = tensor<int32, [1]>([2])];
            tensor<fp16, [1, 257, 6, 64]> squeeze_10_cast_fp16 = squeeze(axes = squeeze_10_axes_0, x = var_271_cast_fp16_1)[name = tensor<string, []>("squeeze_10_cast_fp16")];
            tensor<int32, [1]> squeeze_11_axes_0 = const()[name = tensor<string, []>("squeeze_11_axes_0"), val = tensor<int32, [1]>([2])];
            tensor<fp16, [1, 257, 6, 64]> squeeze_11_cast_fp16 = squeeze(axes = squeeze_11_axes_0, x = var_271_cast_fp16_2)[name = tensor<string, []>("squeeze_11_cast_fp16")];
            tensor<int32, [4]> v_7_perm_0 = const()[name = tensor<string, []>("v_7_perm_0"), val = tensor<int32, [4]>([0, 2, 1, 3])];
            tensor<fp16, []> mul_3_y_0_to_fp16 = const()[name = tensor<string, []>("mul_3_y_0_to_fp16"), val = tensor<fp16, []>(0x1p-3)];
            tensor<fp16, [1, 257, 6, 64]> mul_3_cast_fp16 = mul(x = squeeze_9_cast_fp16, y = mul_3_y_0_to_fp16)[name = tensor<string, []>("mul_3_cast_fp16")];
            tensor<bool, []> matmul_3_transpose_y_0 = const()[name = tensor<string, []>("matmul_3_transpose_y_0"), val = tensor<bool, []>(true)];
            tensor<bool, []> matmul_3_transpose_x_0 = const()[name = tensor<string, []>("matmul_3_transpose_x_0"), val = tensor<bool, []>(false)];
            tensor<int32, [4]> transpose_54_perm_0 = const()[name = tensor<string, []>("transpose_54_perm_0"), val = tensor<int32, [4]>([0, 2, -3, -1])];
            tensor<int32, [4]> transpose_55_perm_0 = const()[name = tensor<string, []>("transpose_55_perm_0"), val = tensor<int32, [4]>([0, 2, -3, -1])];
            tensor<fp16, [1, 6, 257, 64]> transpose_55 = transpose(perm = transpose_55_perm_0, x = squeeze_10_cast_fp16)[name = tensor<string, []>("transpose_105")];
            tensor<fp16, [1, 6, 257, 64]> transpose_54 = transpose(perm = transpose_54_perm_0, x = mul_3_cast_fp16)[name = tensor<string, []>("transpose_106")];
            tensor<fp16, [1, 6, 257, 257]> matmul_3_cast_fp16 = matmul(transpose_x = matmul_3_transpose_x_0, transpose_y = matmul_3_transpose_y_0, x = transpose_54, y = transpose_55)[name = tensor<string, []>("matmul_3_cast_fp16")];
            tensor<int32, []> softmax_3_axis_0 = const()[name = tensor<string, []>("softmax_3_axis_0"), val = tensor<int32, []>(-1)];
            tensor<fp16, [1, 6, 257, 257]> softmax_3_cast_fp16 = softmax(axis = softmax_3_axis_0, x = matmul_3_cast_fp16)[name = tensor<string, []>("softmax_3_cast_fp16")];
            tensor<bool, []> x_37_transpose_x_0 = const()[name = tensor<string, []>("x_37_transpose_x_0"), val = tensor<bool, []>(false)];
            tensor<bool, []> x_37_transpose_y_0 = const()[name = tensor<string, []>("x_37_transpose_y_0"), val = tensor<bool, []>(false)];
            tensor<fp16, [1, 6, 257, 64]> v_7_cast_fp16 = transpose(perm = v_7_perm_0, x = squeeze_11_cast_fp16)[name = tensor<string, []>("transpose_107")];
            tensor<fp16, [1, 6, 257, 64]> x_37_cast_fp16 = matmul(transpose_x = x_37_transpose_x_0, transpose_y = x_37_transpose_y_0, x = softmax_3_cast_fp16, y = v_7_cast_fp16)[name = tensor<string, []>("x_37_cast_fp16")];
            tensor<int32, [4]> var_279_perm_0 = const()[name = tensor<string, []>("op_279_perm_0"), val = tensor<int32, [4]>([0, 2, 1, 3])];
            tensor<int32, [3]> var_281 = const()[name = tensor<string, []>("op_281"), val = tensor<int32, [3]>([1, 257, 384])];
            tensor<fp16, [1, 257, 6, 64]> var_279_cast_fp16 = transpose(perm = var_279_perm_0, x = x_37_cast_fp16)[name = tensor<string, []>("transpose_104")];
            tensor<fp16, [1, 257, 384]> input_57_cast_fp16 = reshape(shape = var_281, x = var_279_cast_fp16)[name = tensor<string, []>("input_57_cast_fp16")];
            tensor<fp16, [384, 384]> backbone_blocks_3_attn_proj_weight_to_fp16 = const()[name = tensor<string, []>("backbone_blocks_3_attn_proj_weight_to_fp16"), val = tensor<fp16, [384, 384]>(BLOBFILE(path = tensor<string, []>("@model_path/weights/weight.bin"), offset = tensor<uint64, []>(12193728)))];
            tensor<fp16, [384]> backbone_blocks_3_attn_proj_bias_to_fp16 = const()[name = tensor<string, []>("backbone_blocks_3_attn_proj_bias_to_fp16"), val = tensor<fp16, [384]>(BLOBFILE(path = tensor<string, []>("@model_path/weights/weight.bin"), offset = tensor<uint64, []>(12488704)))];
            tensor<fp16, [1, 257, 384]> linear_13_cast_fp16 = linear(bias = backbone_blocks_3_attn_proj_bias_to_fp16, weight = backbone_blocks_3_attn_proj_weight_to_fp16, x = input_57_cast_fp16)[name = tensor<string, []>("linear_13_cast_fp16")];
            tensor<fp16, [384]> backbone_blocks_3_ls1_gamma_to_fp16 = const()[name = tensor<string, []>("backbone_blocks_3_ls1_gamma_to_fp16"), val = tensor<fp16, [384]>(BLOBFILE(path = tensor<string, []>("@model_path/weights/weight.bin"), offset = tensor<uint64, []>(12489536)))];
            tensor<fp16, [1, 257, 384]> var_288_cast_fp16 = mul(x = linear_13_cast_fp16, y = backbone_blocks_3_ls1_gamma_to_fp16)[name = tensor<string, []>("op_288_cast_fp16")];
            tensor<fp16, [1, 257, 384]> input_61_cast_fp16 = add(x = input_55_cast_fp16, y = var_288_cast_fp16)[name = tensor<string, []>("input_61_cast_fp16")];
            tensor<int32, [1]> input_63_axes_0 = const()[name = tensor<string, []>("input_63_axes_0"), val = tensor<int32, [1]>([-1])];
            tensor<fp16, [384]> backbone_blocks_3_norm2_weight_to_fp16 = const()[name = tensor<string, []>("backbone_blocks_3_norm2_weight_to_fp16"), val = tensor<fp16, [384]>(BLOBFILE(path = tensor<string, []>("@model_path/weights/weight.bin"), offset = tensor<uint64, []>(12490368)))];
            tensor<fp16, [384]> backbone_blocks_3_norm2_bias_to_fp16 = const()[name = tensor<string, []>("backbone_blocks_3_norm2_bias_to_fp16"), val = tensor<fp16, [384]>(BLOBFILE(path = tensor<string, []>("@model_path/weights/weight.bin"), offset = tensor<uint64, []>(12491200)))];
            tensor<fp16, [1, 257, 384]> input_63_cast_fp16 = layer_norm(axes = input_63_axes_0, beta = backbone_blocks_3_norm2_bias_to_fp16, epsilon = var_9_to_fp16, gamma = backbone_blocks_3_norm2_weight_to_fp16, x = input_61_cast_fp16)[name = tensor<string, []>("input_63_cast_fp16")];
            tensor<fp16, [1536, 384]> backbone_blocks_3_mlp_fc1_weight_to_fp16 = const()[name = tensor<string, []>("backbone_blocks_3_mlp_fc1_weight_to_fp16"), val = tensor<fp16, [1536, 384]>(BLOBFILE(path = tensor<string, []>("@model_path/weights/weight.bin"), offset = tensor<uint64, []>(12492032)))];
            tensor<fp16, [1536]> backbone_blocks_3_mlp_fc1_bias_to_fp16 = const()[name = tensor<string, []>("backbone_blocks_3_mlp_fc1_bias_to_fp16"), val = tensor<fp16, [1536]>(BLOBFILE(path = tensor<string, []>("@model_path/weights/weight.bin"), offset = tensor<uint64, []>(13671744)))];
            tensor<fp16, [1, 257, 1536]> linear_14_cast_fp16 = linear(bias = backbone_blocks_3_mlp_fc1_bias_to_fp16, weight = backbone_blocks_3_mlp_fc1_weight_to_fp16, x = input_63_cast_fp16)[name = tensor<string, []>("linear_14_cast_fp16")];
            tensor<string, []> input_67_mode_0 = const()[name = tensor<string, []>("input_67_mode_0"), val = tensor<string, []>("EXACT")];
            tensor<fp16, [1, 257, 1536]> input_67_cast_fp16 = gelu(mode = input_67_mode_0, x = linear_14_cast_fp16)[name = tensor<string, []>("input_67_cast_fp16")];
            tensor<fp16, [384, 1536]> backbone_blocks_3_mlp_fc2_weight_to_fp16 = const()[name = tensor<string, []>("backbone_blocks_3_mlp_fc2_weight_to_fp16"), val = tensor<fp16, [384, 1536]>(BLOBFILE(path = tensor<string, []>("@model_path/weights/weight.bin"), offset = tensor<uint64, []>(13674880)))];
            tensor<fp16, [384]> backbone_blocks_3_mlp_fc2_bias_to_fp16 = const()[name = tensor<string, []>("backbone_blocks_3_mlp_fc2_bias_to_fp16"), val = tensor<fp16, [384]>(BLOBFILE(path = tensor<string, []>("@model_path/weights/weight.bin"), offset = tensor<uint64, []>(14854592)))];
            tensor<fp16, [1, 257, 384]> linear_15_cast_fp16 = linear(bias = backbone_blocks_3_mlp_fc2_bias_to_fp16, weight = backbone_blocks_3_mlp_fc2_weight_to_fp16, x = input_67_cast_fp16)[name = tensor<string, []>("linear_15_cast_fp16")];
            tensor<fp16, [384]> backbone_blocks_3_ls2_gamma_to_fp16 = const()[name = tensor<string, []>("backbone_blocks_3_ls2_gamma_to_fp16"), val = tensor<fp16, [384]>(BLOBFILE(path = tensor<string, []>("@model_path/weights/weight.bin"), offset = tensor<uint64, []>(14855424)))];
            tensor<fp16, [1, 257, 384]> var_306_cast_fp16 = mul(x = linear_15_cast_fp16, y = backbone_blocks_3_ls2_gamma_to_fp16)[name = tensor<string, []>("op_306_cast_fp16")];
            tensor<fp16, [1, 257, 384]> input_73_cast_fp16 = add(x = input_61_cast_fp16, y = var_306_cast_fp16)[name = tensor<string, []>("input_73_cast_fp16")];
            tensor<int32, [1]> x_43_axes_0 = const()[name = tensor<string, []>("x_43_axes_0"), val = tensor<int32, [1]>([-1])];
            tensor<fp16, [384]> backbone_blocks_4_norm1_weight_to_fp16 = const()[name = tensor<string, []>("backbone_blocks_4_norm1_weight_to_fp16"), val = tensor<fp16, [384]>(BLOBFILE(path = tensor<string, []>("@model_path/weights/weight.bin"), offset = tensor<uint64, []>(14856256)))];
            tensor<fp16, [384]> backbone_blocks_4_norm1_bias_to_fp16 = const()[name = tensor<string, []>("backbone_blocks_4_norm1_bias_to_fp16"), val = tensor<fp16, [384]>(BLOBFILE(path = tensor<string, []>("@model_path/weights/weight.bin"), offset = tensor<uint64, []>(14857088)))];
            tensor<fp16, [1, 257, 384]> x_43_cast_fp16 = layer_norm(axes = x_43_axes_0, beta = backbone_blocks_4_norm1_bias_to_fp16, epsilon = var_9_to_fp16, gamma = backbone_blocks_4_norm1_weight_to_fp16, x = input_73_cast_fp16)[name = tensor<string, []>("x_43_cast_fp16")];
            tensor<fp16, [1152, 384]> backbone_blocks_4_attn_qkv_weight_to_fp16 = const()[name = tensor<string, []>("backbone_blocks_4_attn_qkv_weight_to_fp16"), val = tensor<fp16, [1152, 384]>(BLOBFILE(path = tensor<string, []>("@model_path/weights/weight.bin"), offset = tensor<uint64, []>(14857920)))];
            tensor<fp16, [1152]> backbone_blocks_4_attn_qkv_bias_to_fp16 = const()[name = tensor<string, []>("backbone_blocks_4_attn_qkv_bias_to_fp16"), val = tensor<fp16, [1152]>(BLOBFILE(path = tensor<string, []>("@model_path/weights/weight.bin"), offset = tensor<uint64, []>(15742720)))];
            tensor<fp16, [1, 257, 1152]> linear_16_cast_fp16 = linear(bias = backbone_blocks_4_attn_qkv_bias_to_fp16, weight = backbone_blocks_4_attn_qkv_weight_to_fp16, x = x_43_cast_fp16)[name = tensor<string, []>("linear_16_cast_fp16")];
            tensor<int32, [5]> var_329 = const()[name = tensor<string, []>("op_329"), val = tensor<int32, [5]>([1, 257, 3, 6, 64])];
            tensor<fp16, [1, 257, 3, 6, 64]> qkv_9_cast_fp16 = reshape(shape = var_329, x = linear_16_cast_fp16)[name = tensor<string, []>("qkv_9_cast_fp16")];
            tensor<int32, [3]> var_331_split_sizes_0 = const()[name = tensor<string, []>("op_331_split_sizes_0"), val = tensor<int32, [3]>([1, 1, 1])];
            tensor<int32, []> var_331_axis_0 = const()[name = tensor<string, []>("op_331_axis_0"), val = tensor<int32, []>(2)];
            tensor<fp16, [1, 257, 1, 6, 64]> var_331_cast_fp16_0, tensor<fp16, [1, 257, 1, 6, 64]> var_331_cast_fp16_1, tensor<fp16, [1, 257, 1, 6, 64]> var_331_cast_fp16_2 = split(axis = var_331_axis_0, split_sizes = var_331_split_sizes_0, x = qkv_9_cast_fp16)[name = tensor<string, []>("op_331_cast_fp16")];
            tensor<int32, [1]> squeeze_12_axes_0 = const()[name = tensor<string, []>("squeeze_12_axes_0"), val = tensor<int32, [1]>([2])];
            tensor<fp16, [1, 257, 6, 64]> squeeze_12_cast_fp16 = squeeze(axes = squeeze_12_axes_0, x = var_331_cast_fp16_0)[name = tensor<string, []>("squeeze_12_cast_fp16")];
            tensor<int32, [1]> squeeze_13_axes_0 = const()[name = tensor<string, []>("squeeze_13_axes_0"), val = tensor<int32, [1]>([2])];
            tensor<fp16, [1, 257, 6, 64]> squeeze_13_cast_fp16 = squeeze(axes = squeeze_13_axes_0, x = var_331_cast_fp16_1)[name = tensor<string, []>("squeeze_13_cast_fp16")];
            tensor<int32, [1]> squeeze_14_axes_0 = const()[name = tensor<string, []>("squeeze_14_axes_0"), val = tensor<int32, [1]>([2])];
            tensor<fp16, [1, 257, 6, 64]> squeeze_14_cast_fp16 = squeeze(axes = squeeze_14_axes_0, x = var_331_cast_fp16_2)[name = tensor<string, []>("squeeze_14_cast_fp16")];
            tensor<int32, [4]> v_9_perm_0 = const()[name = tensor<string, []>("v_9_perm_0"), val = tensor<int32, [4]>([0, 2, 1, 3])];
            tensor<fp16, []> mul_4_y_0_to_fp16 = const()[name = tensor<string, []>("mul_4_y_0_to_fp16"), val = tensor<fp16, []>(0x1p-3)];
            tensor<fp16, [1, 257, 6, 64]> mul_4_cast_fp16 = mul(x = squeeze_12_cast_fp16, y = mul_4_y_0_to_fp16)[name = tensor<string, []>("mul_4_cast_fp16")];
            tensor<bool, []> matmul_4_transpose_y_0 = const()[name = tensor<string, []>("matmul_4_transpose_y_0"), val = tensor<bool, []>(true)];
            tensor<bool, []> matmul_4_transpose_x_0 = const()[name = tensor<string, []>("matmul_4_transpose_x_0"), val = tensor<bool, []>(false)];
            tensor<int32, [4]> transpose_56_perm_0 = const()[name = tensor<string, []>("transpose_56_perm_0"), val = tensor<int32, [4]>([0, 2, -3, -1])];
            tensor<int32, [4]> transpose_57_perm_0 = const()[name = tensor<string, []>("transpose_57_perm_0"), val = tensor<int32, [4]>([0, 2, -3, -1])];
            tensor<fp16, [1, 6, 257, 64]> transpose_57 = transpose(perm = transpose_57_perm_0, x = squeeze_13_cast_fp16)[name = tensor<string, []>("transpose_101")];
            tensor<fp16, [1, 6, 257, 64]> transpose_56 = transpose(perm = transpose_56_perm_0, x = mul_4_cast_fp16)[name = tensor<string, []>("transpose_102")];
            tensor<fp16, [1, 6, 257, 257]> matmul_4_cast_fp16 = matmul(transpose_x = matmul_4_transpose_x_0, transpose_y = matmul_4_transpose_y_0, x = transpose_56, y = transpose_57)[name = tensor<string, []>("matmul_4_cast_fp16")];
            tensor<int32, []> softmax_4_axis_0 = const()[name = tensor<string, []>("softmax_4_axis_0"), val = tensor<int32, []>(-1)];
            tensor<fp16, [1, 6, 257, 257]> softmax_4_cast_fp16 = softmax(axis = softmax_4_axis_0, x = matmul_4_cast_fp16)[name = tensor<string, []>("softmax_4_cast_fp16")];
            tensor<bool, []> x_45_transpose_x_0 = const()[name = tensor<string, []>("x_45_transpose_x_0"), val = tensor<bool, []>(false)];
            tensor<bool, []> x_45_transpose_y_0 = const()[name = tensor<string, []>("x_45_transpose_y_0"), val = tensor<bool, []>(false)];
            tensor<fp16, [1, 6, 257, 64]> v_9_cast_fp16 = transpose(perm = v_9_perm_0, x = squeeze_14_cast_fp16)[name = tensor<string, []>("transpose_103")];
            tensor<fp16, [1, 6, 257, 64]> x_45_cast_fp16 = matmul(transpose_x = x_45_transpose_x_0, transpose_y = x_45_transpose_y_0, x = softmax_4_cast_fp16, y = v_9_cast_fp16)[name = tensor<string, []>("x_45_cast_fp16")];
            tensor<int32, [4]> var_339_perm_0 = const()[name = tensor<string, []>("op_339_perm_0"), val = tensor<int32, [4]>([0, 2, 1, 3])];
            tensor<int32, [3]> var_341 = const()[name = tensor<string, []>("op_341"), val = tensor<int32, [3]>([1, 257, 384])];
            tensor<fp16, [1, 257, 6, 64]> var_339_cast_fp16 = transpose(perm = var_339_perm_0, x = x_45_cast_fp16)[name = tensor<string, []>("transpose_100")];
            tensor<fp16, [1, 257, 384]> input_75_cast_fp16 = reshape(shape = var_341, x = var_339_cast_fp16)[name = tensor<string, []>("input_75_cast_fp16")];
            tensor<fp16, [384, 384]> backbone_blocks_4_attn_proj_weight_to_fp16 = const()[name = tensor<string, []>("backbone_blocks_4_attn_proj_weight_to_fp16"), val = tensor<fp16, [384, 384]>(BLOBFILE(path = tensor<string, []>("@model_path/weights/weight.bin"), offset = tensor<uint64, []>(15745088)))];
            tensor<fp16, [384]> backbone_blocks_4_attn_proj_bias_to_fp16 = const()[name = tensor<string, []>("backbone_blocks_4_attn_proj_bias_to_fp16"), val = tensor<fp16, [384]>(BLOBFILE(path = tensor<string, []>("@model_path/weights/weight.bin"), offset = tensor<uint64, []>(16040064)))];
            tensor<fp16, [1, 257, 384]> linear_17_cast_fp16 = linear(bias = backbone_blocks_4_attn_proj_bias_to_fp16, weight = backbone_blocks_4_attn_proj_weight_to_fp16, x = input_75_cast_fp16)[name = tensor<string, []>("linear_17_cast_fp16")];
            tensor<fp16, [384]> backbone_blocks_4_ls1_gamma_to_fp16 = const()[name = tensor<string, []>("backbone_blocks_4_ls1_gamma_to_fp16"), val = tensor<fp16, [384]>(BLOBFILE(path = tensor<string, []>("@model_path/weights/weight.bin"), offset = tensor<uint64, []>(16040896)))];
            tensor<fp16, [1, 257, 384]> var_348_cast_fp16 = mul(x = linear_17_cast_fp16, y = backbone_blocks_4_ls1_gamma_to_fp16)[name = tensor<string, []>("op_348_cast_fp16")];
            tensor<fp16, [1, 257, 384]> input_79_cast_fp16 = add(x = input_73_cast_fp16, y = var_348_cast_fp16)[name = tensor<string, []>("input_79_cast_fp16")];
            tensor<int32, [1]> input_81_axes_0 = const()[name = tensor<string, []>("input_81_axes_0"), val = tensor<int32, [1]>([-1])];
            tensor<fp16, [384]> backbone_blocks_4_norm2_weight_to_fp16 = const()[name = tensor<string, []>("backbone_blocks_4_norm2_weight_to_fp16"), val = tensor<fp16, [384]>(BLOBFILE(path = tensor<string, []>("@model_path/weights/weight.bin"), offset = tensor<uint64, []>(16041728)))];
            tensor<fp16, [384]> backbone_blocks_4_norm2_bias_to_fp16 = const()[name = tensor<string, []>("backbone_blocks_4_norm2_bias_to_fp16"), val = tensor<fp16, [384]>(BLOBFILE(path = tensor<string, []>("@model_path/weights/weight.bin"), offset = tensor<uint64, []>(16042560)))];
            tensor<fp16, [1, 257, 384]> input_81_cast_fp16 = layer_norm(axes = input_81_axes_0, beta = backbone_blocks_4_norm2_bias_to_fp16, epsilon = var_9_to_fp16, gamma = backbone_blocks_4_norm2_weight_to_fp16, x = input_79_cast_fp16)[name = tensor<string, []>("input_81_cast_fp16")];
            tensor<fp16, [1536, 384]> backbone_blocks_4_mlp_fc1_weight_to_fp16 = const()[name = tensor<string, []>("backbone_blocks_4_mlp_fc1_weight_to_fp16"), val = tensor<fp16, [1536, 384]>(BLOBFILE(path = tensor<string, []>("@model_path/weights/weight.bin"), offset = tensor<uint64, []>(16043392)))];
            tensor<fp16, [1536]> backbone_blocks_4_mlp_fc1_bias_to_fp16 = const()[name = tensor<string, []>("backbone_blocks_4_mlp_fc1_bias_to_fp16"), val = tensor<fp16, [1536]>(BLOBFILE(path = tensor<string, []>("@model_path/weights/weight.bin"), offset = tensor<uint64, []>(17223104)))];
            tensor<fp16, [1, 257, 1536]> linear_18_cast_fp16 = linear(bias = backbone_blocks_4_mlp_fc1_bias_to_fp16, weight = backbone_blocks_4_mlp_fc1_weight_to_fp16, x = input_81_cast_fp16)[name = tensor<string, []>("linear_18_cast_fp16")];
            tensor<string, []> input_85_mode_0 = const()[name = tensor<string, []>("input_85_mode_0"), val = tensor<string, []>("EXACT")];
            tensor<fp16, [1, 257, 1536]> input_85_cast_fp16 = gelu(mode = input_85_mode_0, x = linear_18_cast_fp16)[name = tensor<string, []>("input_85_cast_fp16")];
            tensor<fp16, [384, 1536]> backbone_blocks_4_mlp_fc2_weight_to_fp16 = const()[name = tensor<string, []>("backbone_blocks_4_mlp_fc2_weight_to_fp16"), val = tensor<fp16, [384, 1536]>(BLOBFILE(path = tensor<string, []>("@model_path/weights/weight.bin"), offset = tensor<uint64, []>(17226240)))];
            tensor<fp16, [384]> backbone_blocks_4_mlp_fc2_bias_to_fp16 = const()[name = tensor<string, []>("backbone_blocks_4_mlp_fc2_bias_to_fp16"), val = tensor<fp16, [384]>(BLOBFILE(path = tensor<string, []>("@model_path/weights/weight.bin"), offset = tensor<uint64, []>(18405952)))];
            tensor<fp16, [1, 257, 384]> linear_19_cast_fp16 = linear(bias = backbone_blocks_4_mlp_fc2_bias_to_fp16, weight = backbone_blocks_4_mlp_fc2_weight_to_fp16, x = input_85_cast_fp16)[name = tensor<string, []>("linear_19_cast_fp16")];
            tensor<fp16, [384]> backbone_blocks_4_ls2_gamma_to_fp16 = const()[name = tensor<string, []>("backbone_blocks_4_ls2_gamma_to_fp16"), val = tensor<fp16, [384]>(BLOBFILE(path = tensor<string, []>("@model_path/weights/weight.bin"), offset = tensor<uint64, []>(18406784)))];
            tensor<fp16, [1, 257, 384]> var_366_cast_fp16 = mul(x = linear_19_cast_fp16, y = backbone_blocks_4_ls2_gamma_to_fp16)[name = tensor<string, []>("op_366_cast_fp16")];
            tensor<fp16, [1, 257, 384]> input_91_cast_fp16 = add(x = input_79_cast_fp16, y = var_366_cast_fp16)[name = tensor<string, []>("input_91_cast_fp16")];
            tensor<int32, [1]> x_51_axes_0 = const()[name = tensor<string, []>("x_51_axes_0"), val = tensor<int32, [1]>([-1])];
            tensor<fp16, [384]> backbone_blocks_5_norm1_weight_to_fp16 = const()[name = tensor<string, []>("backbone_blocks_5_norm1_weight_to_fp16"), val = tensor<fp16, [384]>(BLOBFILE(path = tensor<string, []>("@model_path/weights/weight.bin"), offset = tensor<uint64, []>(18407616)))];
            tensor<fp16, [384]> backbone_blocks_5_norm1_bias_to_fp16 = const()[name = tensor<string, []>("backbone_blocks_5_norm1_bias_to_fp16"), val = tensor<fp16, [384]>(BLOBFILE(path = tensor<string, []>("@model_path/weights/weight.bin"), offset = tensor<uint64, []>(18408448)))];
            tensor<fp16, [1, 257, 384]> x_51_cast_fp16 = layer_norm(axes = x_51_axes_0, beta = backbone_blocks_5_norm1_bias_to_fp16, epsilon = var_9_to_fp16, gamma = backbone_blocks_5_norm1_weight_to_fp16, x = input_91_cast_fp16)[name = tensor<string, []>("x_51_cast_fp16")];
            tensor<fp16, [1152, 384]> backbone_blocks_5_attn_qkv_weight_to_fp16 = const()[name = tensor<string, []>("backbone_blocks_5_attn_qkv_weight_to_fp16"), val = tensor<fp16, [1152, 384]>(BLOBFILE(path = tensor<string, []>("@model_path/weights/weight.bin"), offset = tensor<uint64, []>(18409280)))];
            tensor<fp16, [1152]> backbone_blocks_5_attn_qkv_bias_to_fp16 = const()[name = tensor<string, []>("backbone_blocks_5_attn_qkv_bias_to_fp16"), val = tensor<fp16, [1152]>(BLOBFILE(path = tensor<string, []>("@model_path/weights/weight.bin"), offset = tensor<uint64, []>(19294080)))];
            tensor<fp16, [1, 257, 1152]> linear_20_cast_fp16 = linear(bias = backbone_blocks_5_attn_qkv_bias_to_fp16, weight = backbone_blocks_5_attn_qkv_weight_to_fp16, x = x_51_cast_fp16)[name = tensor<string, []>("linear_20_cast_fp16")];
            tensor<int32, [5]> var_389 = const()[name = tensor<string, []>("op_389"), val = tensor<int32, [5]>([1, 257, 3, 6, 64])];
            tensor<fp16, [1, 257, 3, 6, 64]> qkv_11_cast_fp16 = reshape(shape = var_389, x = linear_20_cast_fp16)[name = tensor<string, []>("qkv_11_cast_fp16")];
            tensor<int32, [3]> var_391_split_sizes_0 = const()[name = tensor<string, []>("op_391_split_sizes_0"), val = tensor<int32, [3]>([1, 1, 1])];
            tensor<int32, []> var_391_axis_0 = const()[name = tensor<string, []>("op_391_axis_0"), val = tensor<int32, []>(2)];
            tensor<fp16, [1, 257, 1, 6, 64]> var_391_cast_fp16_0, tensor<fp16, [1, 257, 1, 6, 64]> var_391_cast_fp16_1, tensor<fp16, [1, 257, 1, 6, 64]> var_391_cast_fp16_2 = split(axis = var_391_axis_0, split_sizes = var_391_split_sizes_0, x = qkv_11_cast_fp16)[name = tensor<string, []>("op_391_cast_fp16")];
            tensor<int32, [1]> squeeze_15_axes_0 = const()[name = tensor<string, []>("squeeze_15_axes_0"), val = tensor<int32, [1]>([2])];
            tensor<fp16, [1, 257, 6, 64]> squeeze_15_cast_fp16 = squeeze(axes = squeeze_15_axes_0, x = var_391_cast_fp16_0)[name = tensor<string, []>("squeeze_15_cast_fp16")];
            tensor<int32, [1]> squeeze_16_axes_0 = const()[name = tensor<string, []>("squeeze_16_axes_0"), val = tensor<int32, [1]>([2])];
            tensor<fp16, [1, 257, 6, 64]> squeeze_16_cast_fp16 = squeeze(axes = squeeze_16_axes_0, x = var_391_cast_fp16_1)[name = tensor<string, []>("squeeze_16_cast_fp16")];
            tensor<int32, [1]> squeeze_17_axes_0 = const()[name = tensor<string, []>("squeeze_17_axes_0"), val = tensor<int32, [1]>([2])];
            tensor<fp16, [1, 257, 6, 64]> squeeze_17_cast_fp16 = squeeze(axes = squeeze_17_axes_0, x = var_391_cast_fp16_2)[name = tensor<string, []>("squeeze_17_cast_fp16")];
            tensor<int32, [4]> v_11_perm_0 = const()[name = tensor<string, []>("v_11_perm_0"), val = tensor<int32, [4]>([0, 2, 1, 3])];
            tensor<fp16, []> mul_5_y_0_to_fp16 = const()[name = tensor<string, []>("mul_5_y_0_to_fp16"), val = tensor<fp16, []>(0x1p-3)];
            tensor<fp16, [1, 257, 6, 64]> mul_5_cast_fp16 = mul(x = squeeze_15_cast_fp16, y = mul_5_y_0_to_fp16)[name = tensor<string, []>("mul_5_cast_fp16")];
            tensor<bool, []> matmul_5_transpose_y_0 = const()[name = tensor<string, []>("matmul_5_transpose_y_0"), val = tensor<bool, []>(true)];
            tensor<bool, []> matmul_5_transpose_x_0 = const()[name = tensor<string, []>("matmul_5_transpose_x_0"), val = tensor<bool, []>(false)];
            tensor<int32, [4]> transpose_58_perm_0 = const()[name = tensor<string, []>("transpose_58_perm_0"), val = tensor<int32, [4]>([0, 2, -3, -1])];
            tensor<int32, [4]> transpose_59_perm_0 = const()[name = tensor<string, []>("transpose_59_perm_0"), val = tensor<int32, [4]>([0, 2, -3, -1])];
            tensor<fp16, [1, 6, 257, 64]> transpose_59 = transpose(perm = transpose_59_perm_0, x = squeeze_16_cast_fp16)[name = tensor<string, []>("transpose_97")];
            tensor<fp16, [1, 6, 257, 64]> transpose_58 = transpose(perm = transpose_58_perm_0, x = mul_5_cast_fp16)[name = tensor<string, []>("transpose_98")];
            tensor<fp16, [1, 6, 257, 257]> matmul_5_cast_fp16 = matmul(transpose_x = matmul_5_transpose_x_0, transpose_y = matmul_5_transpose_y_0, x = transpose_58, y = transpose_59)[name = tensor<string, []>("matmul_5_cast_fp16")];
            tensor<int32, []> softmax_5_axis_0 = const()[name = tensor<string, []>("softmax_5_axis_0"), val = tensor<int32, []>(-1)];
            tensor<fp16, [1, 6, 257, 257]> softmax_5_cast_fp16 = softmax(axis = softmax_5_axis_0, x = matmul_5_cast_fp16)[name = tensor<string, []>("softmax_5_cast_fp16")];
            tensor<bool, []> x_53_transpose_x_0 = const()[name = tensor<string, []>("x_53_transpose_x_0"), val = tensor<bool, []>(false)];
            tensor<bool, []> x_53_transpose_y_0 = const()[name = tensor<string, []>("x_53_transpose_y_0"), val = tensor<bool, []>(false)];
            tensor<fp16, [1, 6, 257, 64]> v_11_cast_fp16 = transpose(perm = v_11_perm_0, x = squeeze_17_cast_fp16)[name = tensor<string, []>("transpose_99")];
            tensor<fp16, [1, 6, 257, 64]> x_53_cast_fp16 = matmul(transpose_x = x_53_transpose_x_0, transpose_y = x_53_transpose_y_0, x = softmax_5_cast_fp16, y = v_11_cast_fp16)[name = tensor<string, []>("x_53_cast_fp16")];
            tensor<int32, [4]> var_399_perm_0 = const()[name = tensor<string, []>("op_399_perm_0"), val = tensor<int32, [4]>([0, 2, 1, 3])];
            tensor<int32, [3]> var_401 = const()[name = tensor<string, []>("op_401"), val = tensor<int32, [3]>([1, 257, 384])];
            tensor<fp16, [1, 257, 6, 64]> var_399_cast_fp16 = transpose(perm = var_399_perm_0, x = x_53_cast_fp16)[name = tensor<string, []>("transpose_96")];
            tensor<fp16, [1, 257, 384]> input_93_cast_fp16 = reshape(shape = var_401, x = var_399_cast_fp16)[name = tensor<string, []>("input_93_cast_fp16")];
            tensor<fp16, [384, 384]> backbone_blocks_5_attn_proj_weight_to_fp16 = const()[name = tensor<string, []>("backbone_blocks_5_attn_proj_weight_to_fp16"), val = tensor<fp16, [384, 384]>(BLOBFILE(path = tensor<string, []>("@model_path/weights/weight.bin"), offset = tensor<uint64, []>(19296448)))];
            tensor<fp16, [384]> backbone_blocks_5_attn_proj_bias_to_fp16 = const()[name = tensor<string, []>("backbone_blocks_5_attn_proj_bias_to_fp16"), val = tensor<fp16, [384]>(BLOBFILE(path = tensor<string, []>("@model_path/weights/weight.bin"), offset = tensor<uint64, []>(19591424)))];
            tensor<fp16, [1, 257, 384]> linear_21_cast_fp16 = linear(bias = backbone_blocks_5_attn_proj_bias_to_fp16, weight = backbone_blocks_5_attn_proj_weight_to_fp16, x = input_93_cast_fp16)[name = tensor<string, []>("linear_21_cast_fp16")];
            tensor<fp16, [384]> backbone_blocks_5_ls1_gamma_to_fp16 = const()[name = tensor<string, []>("backbone_blocks_5_ls1_gamma_to_fp16"), val = tensor<fp16, [384]>(BLOBFILE(path = tensor<string, []>("@model_path/weights/weight.bin"), offset = tensor<uint64, []>(19592256)))];
            tensor<fp16, [1, 257, 384]> var_408_cast_fp16 = mul(x = linear_21_cast_fp16, y = backbone_blocks_5_ls1_gamma_to_fp16)[name = tensor<string, []>("op_408_cast_fp16")];
            tensor<fp16, [1, 257, 384]> input_97_cast_fp16 = add(x = input_91_cast_fp16, y = var_408_cast_fp16)[name = tensor<string, []>("input_97_cast_fp16")];
            tensor<int32, [1]> input_99_axes_0 = const()[name = tensor<string, []>("input_99_axes_0"), val = tensor<int32, [1]>([-1])];
            tensor<fp16, [384]> backbone_blocks_5_norm2_weight_to_fp16 = const()[name = tensor<string, []>("backbone_blocks_5_norm2_weight_to_fp16"), val = tensor<fp16, [384]>(BLOBFILE(path = tensor<string, []>("@model_path/weights/weight.bin"), offset = tensor<uint64, []>(19593088)))];
            tensor<fp16, [384]> backbone_blocks_5_norm2_bias_to_fp16 = const()[name = tensor<string, []>("backbone_blocks_5_norm2_bias_to_fp16"), val = tensor<fp16, [384]>(BLOBFILE(path = tensor<string, []>("@model_path/weights/weight.bin"), offset = tensor<uint64, []>(19593920)))];
            tensor<fp16, [1, 257, 384]> input_99_cast_fp16 = layer_norm(axes = input_99_axes_0, beta = backbone_blocks_5_norm2_bias_to_fp16, epsilon = var_9_to_fp16, gamma = backbone_blocks_5_norm2_weight_to_fp16, x = input_97_cast_fp16)[name = tensor<string, []>("input_99_cast_fp16")];
            tensor<fp16, [1536, 384]> backbone_blocks_5_mlp_fc1_weight_to_fp16 = const()[name = tensor<string, []>("backbone_blocks_5_mlp_fc1_weight_to_fp16"), val = tensor<fp16, [1536, 384]>(BLOBFILE(path = tensor<string, []>("@model_path/weights/weight.bin"), offset = tensor<uint64, []>(19594752)))];
            tensor<fp16, [1536]> backbone_blocks_5_mlp_fc1_bias_to_fp16 = const()[name = tensor<string, []>("backbone_blocks_5_mlp_fc1_bias_to_fp16"), val = tensor<fp16, [1536]>(BLOBFILE(path = tensor<string, []>("@model_path/weights/weight.bin"), offset = tensor<uint64, []>(20774464)))];
            tensor<fp16, [1, 257, 1536]> linear_22_cast_fp16 = linear(bias = backbone_blocks_5_mlp_fc1_bias_to_fp16, weight = backbone_blocks_5_mlp_fc1_weight_to_fp16, x = input_99_cast_fp16)[name = tensor<string, []>("linear_22_cast_fp16")];
            tensor<string, []> input_103_mode_0 = const()[name = tensor<string, []>("input_103_mode_0"), val = tensor<string, []>("EXACT")];
            tensor<fp16, [1, 257, 1536]> input_103_cast_fp16 = gelu(mode = input_103_mode_0, x = linear_22_cast_fp16)[name = tensor<string, []>("input_103_cast_fp16")];
            tensor<fp16, [384, 1536]> backbone_blocks_5_mlp_fc2_weight_to_fp16 = const()[name = tensor<string, []>("backbone_blocks_5_mlp_fc2_weight_to_fp16"), val = tensor<fp16, [384, 1536]>(BLOBFILE(path = tensor<string, []>("@model_path/weights/weight.bin"), offset = tensor<uint64, []>(20777600)))];
            tensor<fp16, [384]> backbone_blocks_5_mlp_fc2_bias_to_fp16 = const()[name = tensor<string, []>("backbone_blocks_5_mlp_fc2_bias_to_fp16"), val = tensor<fp16, [384]>(BLOBFILE(path = tensor<string, []>("@model_path/weights/weight.bin"), offset = tensor<uint64, []>(21957312)))];
            tensor<fp16, [1, 257, 384]> linear_23_cast_fp16 = linear(bias = backbone_blocks_5_mlp_fc2_bias_to_fp16, weight = backbone_blocks_5_mlp_fc2_weight_to_fp16, x = input_103_cast_fp16)[name = tensor<string, []>("linear_23_cast_fp16")];
            tensor<fp16, [384]> backbone_blocks_5_ls2_gamma_to_fp16 = const()[name = tensor<string, []>("backbone_blocks_5_ls2_gamma_to_fp16"), val = tensor<fp16, [384]>(BLOBFILE(path = tensor<string, []>("@model_path/weights/weight.bin"), offset = tensor<uint64, []>(21958144)))];
            tensor<fp16, [1, 257, 384]> var_426_cast_fp16 = mul(x = linear_23_cast_fp16, y = backbone_blocks_5_ls2_gamma_to_fp16)[name = tensor<string, []>("op_426_cast_fp16")];
            tensor<fp16, [1, 257, 384]> input_109_cast_fp16 = add(x = input_97_cast_fp16, y = var_426_cast_fp16)[name = tensor<string, []>("input_109_cast_fp16")];
            tensor<int32, [1]> x_59_axes_0 = const()[name = tensor<string, []>("x_59_axes_0"), val = tensor<int32, [1]>([-1])];
            tensor<fp16, [384]> backbone_blocks_6_norm1_weight_to_fp16 = const()[name = tensor<string, []>("backbone_blocks_6_norm1_weight_to_fp16"), val = tensor<fp16, [384]>(BLOBFILE(path = tensor<string, []>("@model_path/weights/weight.bin"), offset = tensor<uint64, []>(21958976)))];
            tensor<fp16, [384]> backbone_blocks_6_norm1_bias_to_fp16 = const()[name = tensor<string, []>("backbone_blocks_6_norm1_bias_to_fp16"), val = tensor<fp16, [384]>(BLOBFILE(path = tensor<string, []>("@model_path/weights/weight.bin"), offset = tensor<uint64, []>(21959808)))];
            tensor<fp16, [1, 257, 384]> x_59_cast_fp16 = layer_norm(axes = x_59_axes_0, beta = backbone_blocks_6_norm1_bias_to_fp16, epsilon = var_9_to_fp16, gamma = backbone_blocks_6_norm1_weight_to_fp16, x = input_109_cast_fp16)[name = tensor<string, []>("x_59_cast_fp16")];
            tensor<fp16, [1152, 384]> backbone_blocks_6_attn_qkv_weight_to_fp16 = const()[name = tensor<string, []>("backbone_blocks_6_attn_qkv_weight_to_fp16"), val = tensor<fp16, [1152, 384]>(BLOBFILE(path = tensor<string, []>("@model_path/weights/weight.bin"), offset = tensor<uint64, []>(21960640)))];
            tensor<fp16, [1152]> backbone_blocks_6_attn_qkv_bias_to_fp16 = const()[name = tensor<string, []>("backbone_blocks_6_attn_qkv_bias_to_fp16"), val = tensor<fp16, [1152]>(BLOBFILE(path = tensor<string, []>("@model_path/weights/weight.bin"), offset = tensor<uint64, []>(22845440)))];
            tensor<fp16, [1, 257, 1152]> linear_24_cast_fp16 = linear(bias = backbone_blocks_6_attn_qkv_bias_to_fp16, weight = backbone_blocks_6_attn_qkv_weight_to_fp16, x = x_59_cast_fp16)[name = tensor<string, []>("linear_24_cast_fp16")];
            tensor<int32, [5]> var_449 = const()[name = tensor<string, []>("op_449"), val = tensor<int32, [5]>([1, 257, 3, 6, 64])];
            tensor<fp16, [1, 257, 3, 6, 64]> qkv_13_cast_fp16 = reshape(shape = var_449, x = linear_24_cast_fp16)[name = tensor<string, []>("qkv_13_cast_fp16")];
            tensor<int32, [3]> var_451_split_sizes_0 = const()[name = tensor<string, []>("op_451_split_sizes_0"), val = tensor<int32, [3]>([1, 1, 1])];
            tensor<int32, []> var_451_axis_0 = const()[name = tensor<string, []>("op_451_axis_0"), val = tensor<int32, []>(2)];
            tensor<fp16, [1, 257, 1, 6, 64]> var_451_cast_fp16_0, tensor<fp16, [1, 257, 1, 6, 64]> var_451_cast_fp16_1, tensor<fp16, [1, 257, 1, 6, 64]> var_451_cast_fp16_2 = split(axis = var_451_axis_0, split_sizes = var_451_split_sizes_0, x = qkv_13_cast_fp16)[name = tensor<string, []>("op_451_cast_fp16")];
            tensor<int32, [1]> squeeze_18_axes_0 = const()[name = tensor<string, []>("squeeze_18_axes_0"), val = tensor<int32, [1]>([2])];
            tensor<fp16, [1, 257, 6, 64]> squeeze_18_cast_fp16 = squeeze(axes = squeeze_18_axes_0, x = var_451_cast_fp16_0)[name = tensor<string, []>("squeeze_18_cast_fp16")];
            tensor<int32, [1]> squeeze_19_axes_0 = const()[name = tensor<string, []>("squeeze_19_axes_0"), val = tensor<int32, [1]>([2])];
            tensor<fp16, [1, 257, 6, 64]> squeeze_19_cast_fp16 = squeeze(axes = squeeze_19_axes_0, x = var_451_cast_fp16_1)[name = tensor<string, []>("squeeze_19_cast_fp16")];
            tensor<int32, [1]> squeeze_20_axes_0 = const()[name = tensor<string, []>("squeeze_20_axes_0"), val = tensor<int32, [1]>([2])];
            tensor<fp16, [1, 257, 6, 64]> squeeze_20_cast_fp16 = squeeze(axes = squeeze_20_axes_0, x = var_451_cast_fp16_2)[name = tensor<string, []>("squeeze_20_cast_fp16")];
            tensor<int32, [4]> v_13_perm_0 = const()[name = tensor<string, []>("v_13_perm_0"), val = tensor<int32, [4]>([0, 2, 1, 3])];
            tensor<fp16, []> mul_6_y_0_to_fp16 = const()[name = tensor<string, []>("mul_6_y_0_to_fp16"), val = tensor<fp16, []>(0x1p-3)];
            tensor<fp16, [1, 257, 6, 64]> mul_6_cast_fp16 = mul(x = squeeze_18_cast_fp16, y = mul_6_y_0_to_fp16)[name = tensor<string, []>("mul_6_cast_fp16")];
            tensor<bool, []> matmul_6_transpose_y_0 = const()[name = tensor<string, []>("matmul_6_transpose_y_0"), val = tensor<bool, []>(true)];
            tensor<bool, []> matmul_6_transpose_x_0 = const()[name = tensor<string, []>("matmul_6_transpose_x_0"), val = tensor<bool, []>(false)];
            tensor<int32, [4]> transpose_60_perm_0 = const()[name = tensor<string, []>("transpose_60_perm_0"), val = tensor<int32, [4]>([0, 2, -3, -1])];
            tensor<int32, [4]> transpose_61_perm_0 = const()[name = tensor<string, []>("transpose_61_perm_0"), val = tensor<int32, [4]>([0, 2, -3, -1])];
            tensor<fp16, [1, 6, 257, 64]> transpose_61 = transpose(perm = transpose_61_perm_0, x = squeeze_19_cast_fp16)[name = tensor<string, []>("transpose_93")];
            tensor<fp16, [1, 6, 257, 64]> transpose_60 = transpose(perm = transpose_60_perm_0, x = mul_6_cast_fp16)[name = tensor<string, []>("transpose_94")];
            tensor<fp16, [1, 6, 257, 257]> matmul_6_cast_fp16 = matmul(transpose_x = matmul_6_transpose_x_0, transpose_y = matmul_6_transpose_y_0, x = transpose_60, y = transpose_61)[name = tensor<string, []>("matmul_6_cast_fp16")];
            tensor<int32, []> softmax_6_axis_0 = const()[name = tensor<string, []>("softmax_6_axis_0"), val = tensor<int32, []>(-1)];
            tensor<fp16, [1, 6, 257, 257]> softmax_6_cast_fp16 = softmax(axis = softmax_6_axis_0, x = matmul_6_cast_fp16)[name = tensor<string, []>("softmax_6_cast_fp16")];
            tensor<bool, []> x_61_transpose_x_0 = const()[name = tensor<string, []>("x_61_transpose_x_0"), val = tensor<bool, []>(false)];
            tensor<bool, []> x_61_transpose_y_0 = const()[name = tensor<string, []>("x_61_transpose_y_0"), val = tensor<bool, []>(false)];
            tensor<fp16, [1, 6, 257, 64]> v_13_cast_fp16 = transpose(perm = v_13_perm_0, x = squeeze_20_cast_fp16)[name = tensor<string, []>("transpose_95")];
            tensor<fp16, [1, 6, 257, 64]> x_61_cast_fp16 = matmul(transpose_x = x_61_transpose_x_0, transpose_y = x_61_transpose_y_0, x = softmax_6_cast_fp16, y = v_13_cast_fp16)[name = tensor<string, []>("x_61_cast_fp16")];
            tensor<int32, [4]> var_459_perm_0 = const()[name = tensor<string, []>("op_459_perm_0"), val = tensor<int32, [4]>([0, 2, 1, 3])];
            tensor<int32, [3]> var_461 = const()[name = tensor<string, []>("op_461"), val = tensor<int32, [3]>([1, 257, 384])];
            tensor<fp16, [1, 257, 6, 64]> var_459_cast_fp16 = transpose(perm = var_459_perm_0, x = x_61_cast_fp16)[name = tensor<string, []>("transpose_92")];
            tensor<fp16, [1, 257, 384]> input_111_cast_fp16 = reshape(shape = var_461, x = var_459_cast_fp16)[name = tensor<string, []>("input_111_cast_fp16")];
            tensor<fp16, [384, 384]> backbone_blocks_6_attn_proj_weight_to_fp16 = const()[name = tensor<string, []>("backbone_blocks_6_attn_proj_weight_to_fp16"), val = tensor<fp16, [384, 384]>(BLOBFILE(path = tensor<string, []>("@model_path/weights/weight.bin"), offset = tensor<uint64, []>(22847808)))];
            tensor<fp16, [384]> backbone_blocks_6_attn_proj_bias_to_fp16 = const()[name = tensor<string, []>("backbone_blocks_6_attn_proj_bias_to_fp16"), val = tensor<fp16, [384]>(BLOBFILE(path = tensor<string, []>("@model_path/weights/weight.bin"), offset = tensor<uint64, []>(23142784)))];
            tensor<fp16, [1, 257, 384]> linear_25_cast_fp16 = linear(bias = backbone_blocks_6_attn_proj_bias_to_fp16, weight = backbone_blocks_6_attn_proj_weight_to_fp16, x = input_111_cast_fp16)[name = tensor<string, []>("linear_25_cast_fp16")];
            tensor<fp16, [384]> backbone_blocks_6_ls1_gamma_to_fp16 = const()[name = tensor<string, []>("backbone_blocks_6_ls1_gamma_to_fp16"), val = tensor<fp16, [384]>(BLOBFILE(path = tensor<string, []>("@model_path/weights/weight.bin"), offset = tensor<uint64, []>(23143616)))];
            tensor<fp16, [1, 257, 384]> var_468_cast_fp16 = mul(x = linear_25_cast_fp16, y = backbone_blocks_6_ls1_gamma_to_fp16)[name = tensor<string, []>("op_468_cast_fp16")];
            tensor<fp16, [1, 257, 384]> input_115_cast_fp16 = add(x = input_109_cast_fp16, y = var_468_cast_fp16)[name = tensor<string, []>("input_115_cast_fp16")];
            tensor<int32, [1]> input_117_axes_0 = const()[name = tensor<string, []>("input_117_axes_0"), val = tensor<int32, [1]>([-1])];
            tensor<fp16, [384]> backbone_blocks_6_norm2_weight_to_fp16 = const()[name = tensor<string, []>("backbone_blocks_6_norm2_weight_to_fp16"), val = tensor<fp16, [384]>(BLOBFILE(path = tensor<string, []>("@model_path/weights/weight.bin"), offset = tensor<uint64, []>(23144448)))];
            tensor<fp16, [384]> backbone_blocks_6_norm2_bias_to_fp16 = const()[name = tensor<string, []>("backbone_blocks_6_norm2_bias_to_fp16"), val = tensor<fp16, [384]>(BLOBFILE(path = tensor<string, []>("@model_path/weights/weight.bin"), offset = tensor<uint64, []>(23145280)))];
            tensor<fp16, [1, 257, 384]> input_117_cast_fp16 = layer_norm(axes = input_117_axes_0, beta = backbone_blocks_6_norm2_bias_to_fp16, epsilon = var_9_to_fp16, gamma = backbone_blocks_6_norm2_weight_to_fp16, x = input_115_cast_fp16)[name = tensor<string, []>("input_117_cast_fp16")];
            tensor<fp16, [1536, 384]> backbone_blocks_6_mlp_fc1_weight_to_fp16 = const()[name = tensor<string, []>("backbone_blocks_6_mlp_fc1_weight_to_fp16"), val = tensor<fp16, [1536, 384]>(BLOBFILE(path = tensor<string, []>("@model_path/weights/weight.bin"), offset = tensor<uint64, []>(23146112)))];
            tensor<fp16, [1536]> backbone_blocks_6_mlp_fc1_bias_to_fp16 = const()[name = tensor<string, []>("backbone_blocks_6_mlp_fc1_bias_to_fp16"), val = tensor<fp16, [1536]>(BLOBFILE(path = tensor<string, []>("@model_path/weights/weight.bin"), offset = tensor<uint64, []>(24325824)))];
            tensor<fp16, [1, 257, 1536]> linear_26_cast_fp16 = linear(bias = backbone_blocks_6_mlp_fc1_bias_to_fp16, weight = backbone_blocks_6_mlp_fc1_weight_to_fp16, x = input_117_cast_fp16)[name = tensor<string, []>("linear_26_cast_fp16")];
            tensor<string, []> input_121_mode_0 = const()[name = tensor<string, []>("input_121_mode_0"), val = tensor<string, []>("EXACT")];
            tensor<fp16, [1, 257, 1536]> input_121_cast_fp16 = gelu(mode = input_121_mode_0, x = linear_26_cast_fp16)[name = tensor<string, []>("input_121_cast_fp16")];
            tensor<fp16, [384, 1536]> backbone_blocks_6_mlp_fc2_weight_to_fp16 = const()[name = tensor<string, []>("backbone_blocks_6_mlp_fc2_weight_to_fp16"), val = tensor<fp16, [384, 1536]>(BLOBFILE(path = tensor<string, []>("@model_path/weights/weight.bin"), offset = tensor<uint64, []>(24328960)))];
            tensor<fp16, [384]> backbone_blocks_6_mlp_fc2_bias_to_fp16 = const()[name = tensor<string, []>("backbone_blocks_6_mlp_fc2_bias_to_fp16"), val = tensor<fp16, [384]>(BLOBFILE(path = tensor<string, []>("@model_path/weights/weight.bin"), offset = tensor<uint64, []>(25508672)))];
            tensor<fp16, [1, 257, 384]> linear_27_cast_fp16 = linear(bias = backbone_blocks_6_mlp_fc2_bias_to_fp16, weight = backbone_blocks_6_mlp_fc2_weight_to_fp16, x = input_121_cast_fp16)[name = tensor<string, []>("linear_27_cast_fp16")];
            tensor<fp16, [384]> backbone_blocks_6_ls2_gamma_to_fp16 = const()[name = tensor<string, []>("backbone_blocks_6_ls2_gamma_to_fp16"), val = tensor<fp16, [384]>(BLOBFILE(path = tensor<string, []>("@model_path/weights/weight.bin"), offset = tensor<uint64, []>(25509504)))];
            tensor<fp16, [1, 257, 384]> var_486_cast_fp16 = mul(x = linear_27_cast_fp16, y = backbone_blocks_6_ls2_gamma_to_fp16)[name = tensor<string, []>("op_486_cast_fp16")];
            tensor<fp16, [1, 257, 384]> input_127_cast_fp16 = add(x = input_115_cast_fp16, y = var_486_cast_fp16)[name = tensor<string, []>("input_127_cast_fp16")];
            tensor<int32, [1]> x_67_axes_0 = const()[name = tensor<string, []>("x_67_axes_0"), val = tensor<int32, [1]>([-1])];
            tensor<fp16, [384]> backbone_blocks_7_norm1_weight_to_fp16 = const()[name = tensor<string, []>("backbone_blocks_7_norm1_weight_to_fp16"), val = tensor<fp16, [384]>(BLOBFILE(path = tensor<string, []>("@model_path/weights/weight.bin"), offset = tensor<uint64, []>(25510336)))];
            tensor<fp16, [384]> backbone_blocks_7_norm1_bias_to_fp16 = const()[name = tensor<string, []>("backbone_blocks_7_norm1_bias_to_fp16"), val = tensor<fp16, [384]>(BLOBFILE(path = tensor<string, []>("@model_path/weights/weight.bin"), offset = tensor<uint64, []>(25511168)))];
            tensor<fp16, [1, 257, 384]> x_67_cast_fp16 = layer_norm(axes = x_67_axes_0, beta = backbone_blocks_7_norm1_bias_to_fp16, epsilon = var_9_to_fp16, gamma = backbone_blocks_7_norm1_weight_to_fp16, x = input_127_cast_fp16)[name = tensor<string, []>("x_67_cast_fp16")];
            tensor<fp16, [1152, 384]> backbone_blocks_7_attn_qkv_weight_to_fp16 = const()[name = tensor<string, []>("backbone_blocks_7_attn_qkv_weight_to_fp16"), val = tensor<fp16, [1152, 384]>(BLOBFILE(path = tensor<string, []>("@model_path/weights/weight.bin"), offset = tensor<uint64, []>(25512000)))];
            tensor<fp16, [1152]> backbone_blocks_7_attn_qkv_bias_to_fp16 = const()[name = tensor<string, []>("backbone_blocks_7_attn_qkv_bias_to_fp16"), val = tensor<fp16, [1152]>(BLOBFILE(path = tensor<string, []>("@model_path/weights/weight.bin"), offset = tensor<uint64, []>(26396800)))];
            tensor<fp16, [1, 257, 1152]> linear_28_cast_fp16 = linear(bias = backbone_blocks_7_attn_qkv_bias_to_fp16, weight = backbone_blocks_7_attn_qkv_weight_to_fp16, x = x_67_cast_fp16)[name = tensor<string, []>("linear_28_cast_fp16")];
            tensor<int32, [5]> var_509 = const()[name = tensor<string, []>("op_509"), val = tensor<int32, [5]>([1, 257, 3, 6, 64])];
            tensor<fp16, [1, 257, 3, 6, 64]> qkv_15_cast_fp16 = reshape(shape = var_509, x = linear_28_cast_fp16)[name = tensor<string, []>("qkv_15_cast_fp16")];
            tensor<int32, [3]> var_511_split_sizes_0 = const()[name = tensor<string, []>("op_511_split_sizes_0"), val = tensor<int32, [3]>([1, 1, 1])];
            tensor<int32, []> var_511_axis_0 = const()[name = tensor<string, []>("op_511_axis_0"), val = tensor<int32, []>(2)];
            tensor<fp16, [1, 257, 1, 6, 64]> var_511_cast_fp16_0, tensor<fp16, [1, 257, 1, 6, 64]> var_511_cast_fp16_1, tensor<fp16, [1, 257, 1, 6, 64]> var_511_cast_fp16_2 = split(axis = var_511_axis_0, split_sizes = var_511_split_sizes_0, x = qkv_15_cast_fp16)[name = tensor<string, []>("op_511_cast_fp16")];
            tensor<int32, [1]> squeeze_21_axes_0 = const()[name = tensor<string, []>("squeeze_21_axes_0"), val = tensor<int32, [1]>([2])];
            tensor<fp16, [1, 257, 6, 64]> squeeze_21_cast_fp16 = squeeze(axes = squeeze_21_axes_0, x = var_511_cast_fp16_0)[name = tensor<string, []>("squeeze_21_cast_fp16")];
            tensor<int32, [1]> squeeze_22_axes_0 = const()[name = tensor<string, []>("squeeze_22_axes_0"), val = tensor<int32, [1]>([2])];
            tensor<fp16, [1, 257, 6, 64]> squeeze_22_cast_fp16 = squeeze(axes = squeeze_22_axes_0, x = var_511_cast_fp16_1)[name = tensor<string, []>("squeeze_22_cast_fp16")];
            tensor<int32, [1]> squeeze_23_axes_0 = const()[name = tensor<string, []>("squeeze_23_axes_0"), val = tensor<int32, [1]>([2])];
            tensor<fp16, [1, 257, 6, 64]> squeeze_23_cast_fp16 = squeeze(axes = squeeze_23_axes_0, x = var_511_cast_fp16_2)[name = tensor<string, []>("squeeze_23_cast_fp16")];
            tensor<int32, [4]> v_15_perm_0 = const()[name = tensor<string, []>("v_15_perm_0"), val = tensor<int32, [4]>([0, 2, 1, 3])];
            tensor<fp16, []> mul_7_y_0_to_fp16 = const()[name = tensor<string, []>("mul_7_y_0_to_fp16"), val = tensor<fp16, []>(0x1p-3)];
            tensor<fp16, [1, 257, 6, 64]> mul_7_cast_fp16 = mul(x = squeeze_21_cast_fp16, y = mul_7_y_0_to_fp16)[name = tensor<string, []>("mul_7_cast_fp16")];
            tensor<bool, []> matmul_7_transpose_y_0 = const()[name = tensor<string, []>("matmul_7_transpose_y_0"), val = tensor<bool, []>(true)];
            tensor<bool, []> matmul_7_transpose_x_0 = const()[name = tensor<string, []>("matmul_7_transpose_x_0"), val = tensor<bool, []>(false)];
            tensor<int32, [4]> transpose_62_perm_0 = const()[name = tensor<string, []>("transpose_62_perm_0"), val = tensor<int32, [4]>([0, 2, -3, -1])];
            tensor<int32, [4]> transpose_63_perm_0 = const()[name = tensor<string, []>("transpose_63_perm_0"), val = tensor<int32, [4]>([0, 2, -3, -1])];
            tensor<fp16, [1, 6, 257, 64]> transpose_63 = transpose(perm = transpose_63_perm_0, x = squeeze_22_cast_fp16)[name = tensor<string, []>("transpose_89")];
            tensor<fp16, [1, 6, 257, 64]> transpose_62 = transpose(perm = transpose_62_perm_0, x = mul_7_cast_fp16)[name = tensor<string, []>("transpose_90")];
            tensor<fp16, [1, 6, 257, 257]> matmul_7_cast_fp16 = matmul(transpose_x = matmul_7_transpose_x_0, transpose_y = matmul_7_transpose_y_0, x = transpose_62, y = transpose_63)[name = tensor<string, []>("matmul_7_cast_fp16")];
            tensor<int32, []> softmax_7_axis_0 = const()[name = tensor<string, []>("softmax_7_axis_0"), val = tensor<int32, []>(-1)];
            tensor<fp16, [1, 6, 257, 257]> softmax_7_cast_fp16 = softmax(axis = softmax_7_axis_0, x = matmul_7_cast_fp16)[name = tensor<string, []>("softmax_7_cast_fp16")];
            tensor<bool, []> x_69_transpose_x_0 = const()[name = tensor<string, []>("x_69_transpose_x_0"), val = tensor<bool, []>(false)];
            tensor<bool, []> x_69_transpose_y_0 = const()[name = tensor<string, []>("x_69_transpose_y_0"), val = tensor<bool, []>(false)];
            tensor<fp16, [1, 6, 257, 64]> v_15_cast_fp16 = transpose(perm = v_15_perm_0, x = squeeze_23_cast_fp16)[name = tensor<string, []>("transpose_91")];
            tensor<fp16, [1, 6, 257, 64]> x_69_cast_fp16 = matmul(transpose_x = x_69_transpose_x_0, transpose_y = x_69_transpose_y_0, x = softmax_7_cast_fp16, y = v_15_cast_fp16)[name = tensor<string, []>("x_69_cast_fp16")];
            tensor<int32, [4]> var_519_perm_0 = const()[name = tensor<string, []>("op_519_perm_0"), val = tensor<int32, [4]>([0, 2, 1, 3])];
            tensor<int32, [3]> var_521 = const()[name = tensor<string, []>("op_521"), val = tensor<int32, [3]>([1, 257, 384])];
            tensor<fp16, [1, 257, 6, 64]> var_519_cast_fp16 = transpose(perm = var_519_perm_0, x = x_69_cast_fp16)[name = tensor<string, []>("transpose_88")];
            tensor<fp16, [1, 257, 384]> input_129_cast_fp16 = reshape(shape = var_521, x = var_519_cast_fp16)[name = tensor<string, []>("input_129_cast_fp16")];
            tensor<fp16, [384, 384]> backbone_blocks_7_attn_proj_weight_to_fp16 = const()[name = tensor<string, []>("backbone_blocks_7_attn_proj_weight_to_fp16"), val = tensor<fp16, [384, 384]>(BLOBFILE(path = tensor<string, []>("@model_path/weights/weight.bin"), offset = tensor<uint64, []>(26399168)))];
            tensor<fp16, [384]> backbone_blocks_7_attn_proj_bias_to_fp16 = const()[name = tensor<string, []>("backbone_blocks_7_attn_proj_bias_to_fp16"), val = tensor<fp16, [384]>(BLOBFILE(path = tensor<string, []>("@model_path/weights/weight.bin"), offset = tensor<uint64, []>(26694144)))];
            tensor<fp16, [1, 257, 384]> linear_29_cast_fp16 = linear(bias = backbone_blocks_7_attn_proj_bias_to_fp16, weight = backbone_blocks_7_attn_proj_weight_to_fp16, x = input_129_cast_fp16)[name = tensor<string, []>("linear_29_cast_fp16")];
            tensor<fp16, [384]> backbone_blocks_7_ls1_gamma_to_fp16 = const()[name = tensor<string, []>("backbone_blocks_7_ls1_gamma_to_fp16"), val = tensor<fp16, [384]>(BLOBFILE(path = tensor<string, []>("@model_path/weights/weight.bin"), offset = tensor<uint64, []>(26694976)))];
            tensor<fp16, [1, 257, 384]> var_528_cast_fp16 = mul(x = linear_29_cast_fp16, y = backbone_blocks_7_ls1_gamma_to_fp16)[name = tensor<string, []>("op_528_cast_fp16")];
            tensor<fp16, [1, 257, 384]> input_133_cast_fp16 = add(x = input_127_cast_fp16, y = var_528_cast_fp16)[name = tensor<string, []>("input_133_cast_fp16")];
            tensor<int32, [1]> input_135_axes_0 = const()[name = tensor<string, []>("input_135_axes_0"), val = tensor<int32, [1]>([-1])];
            tensor<fp16, [384]> backbone_blocks_7_norm2_weight_to_fp16 = const()[name = tensor<string, []>("backbone_blocks_7_norm2_weight_to_fp16"), val = tensor<fp16, [384]>(BLOBFILE(path = tensor<string, []>("@model_path/weights/weight.bin"), offset = tensor<uint64, []>(26695808)))];
            tensor<fp16, [384]> backbone_blocks_7_norm2_bias_to_fp16 = const()[name = tensor<string, []>("backbone_blocks_7_norm2_bias_to_fp16"), val = tensor<fp16, [384]>(BLOBFILE(path = tensor<string, []>("@model_path/weights/weight.bin"), offset = tensor<uint64, []>(26696640)))];
            tensor<fp16, [1, 257, 384]> input_135_cast_fp16 = layer_norm(axes = input_135_axes_0, beta = backbone_blocks_7_norm2_bias_to_fp16, epsilon = var_9_to_fp16, gamma = backbone_blocks_7_norm2_weight_to_fp16, x = input_133_cast_fp16)[name = tensor<string, []>("input_135_cast_fp16")];
            tensor<fp16, [1536, 384]> backbone_blocks_7_mlp_fc1_weight_to_fp16 = const()[name = tensor<string, []>("backbone_blocks_7_mlp_fc1_weight_to_fp16"), val = tensor<fp16, [1536, 384]>(BLOBFILE(path = tensor<string, []>("@model_path/weights/weight.bin"), offset = tensor<uint64, []>(26697472)))];
            tensor<fp16, [1536]> backbone_blocks_7_mlp_fc1_bias_to_fp16 = const()[name = tensor<string, []>("backbone_blocks_7_mlp_fc1_bias_to_fp16"), val = tensor<fp16, [1536]>(BLOBFILE(path = tensor<string, []>("@model_path/weights/weight.bin"), offset = tensor<uint64, []>(27877184)))];
            tensor<fp16, [1, 257, 1536]> linear_30_cast_fp16 = linear(bias = backbone_blocks_7_mlp_fc1_bias_to_fp16, weight = backbone_blocks_7_mlp_fc1_weight_to_fp16, x = input_135_cast_fp16)[name = tensor<string, []>("linear_30_cast_fp16")];
            tensor<string, []> input_139_mode_0 = const()[name = tensor<string, []>("input_139_mode_0"), val = tensor<string, []>("EXACT")];
            tensor<fp16, [1, 257, 1536]> input_139_cast_fp16 = gelu(mode = input_139_mode_0, x = linear_30_cast_fp16)[name = tensor<string, []>("input_139_cast_fp16")];
            tensor<fp16, [384, 1536]> backbone_blocks_7_mlp_fc2_weight_to_fp16 = const()[name = tensor<string, []>("backbone_blocks_7_mlp_fc2_weight_to_fp16"), val = tensor<fp16, [384, 1536]>(BLOBFILE(path = tensor<string, []>("@model_path/weights/weight.bin"), offset = tensor<uint64, []>(27880320)))];
            tensor<fp16, [384]> backbone_blocks_7_mlp_fc2_bias_to_fp16 = const()[name = tensor<string, []>("backbone_blocks_7_mlp_fc2_bias_to_fp16"), val = tensor<fp16, [384]>(BLOBFILE(path = tensor<string, []>("@model_path/weights/weight.bin"), offset = tensor<uint64, []>(29060032)))];
            tensor<fp16, [1, 257, 384]> linear_31_cast_fp16 = linear(bias = backbone_blocks_7_mlp_fc2_bias_to_fp16, weight = backbone_blocks_7_mlp_fc2_weight_to_fp16, x = input_139_cast_fp16)[name = tensor<string, []>("linear_31_cast_fp16")];
            tensor<fp16, [384]> backbone_blocks_7_ls2_gamma_to_fp16 = const()[name = tensor<string, []>("backbone_blocks_7_ls2_gamma_to_fp16"), val = tensor<fp16, [384]>(BLOBFILE(path = tensor<string, []>("@model_path/weights/weight.bin"), offset = tensor<uint64, []>(29060864)))];
            tensor<fp16, [1, 257, 384]> var_546_cast_fp16 = mul(x = linear_31_cast_fp16, y = backbone_blocks_7_ls2_gamma_to_fp16)[name = tensor<string, []>("op_546_cast_fp16")];
            tensor<fp16, [1, 257, 384]> input_145_cast_fp16 = add(x = input_133_cast_fp16, y = var_546_cast_fp16)[name = tensor<string, []>("input_145_cast_fp16")];
            tensor<int32, [1]> x_75_axes_0 = const()[name = tensor<string, []>("x_75_axes_0"), val = tensor<int32, [1]>([-1])];
            tensor<fp16, [384]> backbone_blocks_8_norm1_weight_to_fp16 = const()[name = tensor<string, []>("backbone_blocks_8_norm1_weight_to_fp16"), val = tensor<fp16, [384]>(BLOBFILE(path = tensor<string, []>("@model_path/weights/weight.bin"), offset = tensor<uint64, []>(29061696)))];
            tensor<fp16, [384]> backbone_blocks_8_norm1_bias_to_fp16 = const()[name = tensor<string, []>("backbone_blocks_8_norm1_bias_to_fp16"), val = tensor<fp16, [384]>(BLOBFILE(path = tensor<string, []>("@model_path/weights/weight.bin"), offset = tensor<uint64, []>(29062528)))];
            tensor<fp16, [1, 257, 384]> x_75_cast_fp16 = layer_norm(axes = x_75_axes_0, beta = backbone_blocks_8_norm1_bias_to_fp16, epsilon = var_9_to_fp16, gamma = backbone_blocks_8_norm1_weight_to_fp16, x = input_145_cast_fp16)[name = tensor<string, []>("x_75_cast_fp16")];
            tensor<fp16, [1152, 384]> backbone_blocks_8_attn_qkv_weight_to_fp16 = const()[name = tensor<string, []>("backbone_blocks_8_attn_qkv_weight_to_fp16"), val = tensor<fp16, [1152, 384]>(BLOBFILE(path = tensor<string, []>("@model_path/weights/weight.bin"), offset = tensor<uint64, []>(29063360)))];
            tensor<fp16, [1152]> backbone_blocks_8_attn_qkv_bias_to_fp16 = const()[name = tensor<string, []>("backbone_blocks_8_attn_qkv_bias_to_fp16"), val = tensor<fp16, [1152]>(BLOBFILE(path = tensor<string, []>("@model_path/weights/weight.bin"), offset = tensor<uint64, []>(29948160)))];
            tensor<fp16, [1, 257, 1152]> linear_32_cast_fp16 = linear(bias = backbone_blocks_8_attn_qkv_bias_to_fp16, weight = backbone_blocks_8_attn_qkv_weight_to_fp16, x = x_75_cast_fp16)[name = tensor<string, []>("linear_32_cast_fp16")];
            tensor<int32, [5]> var_569 = const()[name = tensor<string, []>("op_569"), val = tensor<int32, [5]>([1, 257, 3, 6, 64])];
            tensor<fp16, [1, 257, 3, 6, 64]> qkv_17_cast_fp16 = reshape(shape = var_569, x = linear_32_cast_fp16)[name = tensor<string, []>("qkv_17_cast_fp16")];
            tensor<int32, [3]> var_571_split_sizes_0 = const()[name = tensor<string, []>("op_571_split_sizes_0"), val = tensor<int32, [3]>([1, 1, 1])];
            tensor<int32, []> var_571_axis_0 = const()[name = tensor<string, []>("op_571_axis_0"), val = tensor<int32, []>(2)];
            tensor<fp16, [1, 257, 1, 6, 64]> var_571_cast_fp16_0, tensor<fp16, [1, 257, 1, 6, 64]> var_571_cast_fp16_1, tensor<fp16, [1, 257, 1, 6, 64]> var_571_cast_fp16_2 = split(axis = var_571_axis_0, split_sizes = var_571_split_sizes_0, x = qkv_17_cast_fp16)[name = tensor<string, []>("op_571_cast_fp16")];
            tensor<int32, [1]> squeeze_24_axes_0 = const()[name = tensor<string, []>("squeeze_24_axes_0"), val = tensor<int32, [1]>([2])];
            tensor<fp16, [1, 257, 6, 64]> squeeze_24_cast_fp16 = squeeze(axes = squeeze_24_axes_0, x = var_571_cast_fp16_0)[name = tensor<string, []>("squeeze_24_cast_fp16")];
            tensor<int32, [1]> squeeze_25_axes_0 = const()[name = tensor<string, []>("squeeze_25_axes_0"), val = tensor<int32, [1]>([2])];
            tensor<fp16, [1, 257, 6, 64]> squeeze_25_cast_fp16 = squeeze(axes = squeeze_25_axes_0, x = var_571_cast_fp16_1)[name = tensor<string, []>("squeeze_25_cast_fp16")];
            tensor<int32, [1]> squeeze_26_axes_0 = const()[name = tensor<string, []>("squeeze_26_axes_0"), val = tensor<int32, [1]>([2])];
            tensor<fp16, [1, 257, 6, 64]> squeeze_26_cast_fp16 = squeeze(axes = squeeze_26_axes_0, x = var_571_cast_fp16_2)[name = tensor<string, []>("squeeze_26_cast_fp16")];
            tensor<int32, [4]> v_17_perm_0 = const()[name = tensor<string, []>("v_17_perm_0"), val = tensor<int32, [4]>([0, 2, 1, 3])];
            tensor<fp16, []> mul_8_y_0_to_fp16 = const()[name = tensor<string, []>("mul_8_y_0_to_fp16"), val = tensor<fp16, []>(0x1p-3)];
            tensor<fp16, [1, 257, 6, 64]> mul_8_cast_fp16 = mul(x = squeeze_24_cast_fp16, y = mul_8_y_0_to_fp16)[name = tensor<string, []>("mul_8_cast_fp16")];
            tensor<bool, []> matmul_8_transpose_y_0 = const()[name = tensor<string, []>("matmul_8_transpose_y_0"), val = tensor<bool, []>(true)];
            tensor<bool, []> matmul_8_transpose_x_0 = const()[name = tensor<string, []>("matmul_8_transpose_x_0"), val = tensor<bool, []>(false)];
            tensor<int32, [4]> transpose_64_perm_0 = const()[name = tensor<string, []>("transpose_64_perm_0"), val = tensor<int32, [4]>([0, 2, -3, -1])];
            tensor<int32, [4]> transpose_65_perm_0 = const()[name = tensor<string, []>("transpose_65_perm_0"), val = tensor<int32, [4]>([0, 2, -3, -1])];
            tensor<fp16, [1, 6, 257, 64]> transpose_65 = transpose(perm = transpose_65_perm_0, x = squeeze_25_cast_fp16)[name = tensor<string, []>("transpose_85")];
            tensor<fp16, [1, 6, 257, 64]> transpose_64 = transpose(perm = transpose_64_perm_0, x = mul_8_cast_fp16)[name = tensor<string, []>("transpose_86")];
            tensor<fp16, [1, 6, 257, 257]> matmul_8_cast_fp16 = matmul(transpose_x = matmul_8_transpose_x_0, transpose_y = matmul_8_transpose_y_0, x = transpose_64, y = transpose_65)[name = tensor<string, []>("matmul_8_cast_fp16")];
            tensor<int32, []> softmax_8_axis_0 = const()[name = tensor<string, []>("softmax_8_axis_0"), val = tensor<int32, []>(-1)];
            tensor<fp16, [1, 6, 257, 257]> softmax_8_cast_fp16 = softmax(axis = softmax_8_axis_0, x = matmul_8_cast_fp16)[name = tensor<string, []>("softmax_8_cast_fp16")];
            tensor<bool, []> x_77_transpose_x_0 = const()[name = tensor<string, []>("x_77_transpose_x_0"), val = tensor<bool, []>(false)];
            tensor<bool, []> x_77_transpose_y_0 = const()[name = tensor<string, []>("x_77_transpose_y_0"), val = tensor<bool, []>(false)];
            tensor<fp16, [1, 6, 257, 64]> v_17_cast_fp16 = transpose(perm = v_17_perm_0, x = squeeze_26_cast_fp16)[name = tensor<string, []>("transpose_87")];
            tensor<fp16, [1, 6, 257, 64]> x_77_cast_fp16 = matmul(transpose_x = x_77_transpose_x_0, transpose_y = x_77_transpose_y_0, x = softmax_8_cast_fp16, y = v_17_cast_fp16)[name = tensor<string, []>("x_77_cast_fp16")];
            tensor<int32, [4]> var_579_perm_0 = const()[name = tensor<string, []>("op_579_perm_0"), val = tensor<int32, [4]>([0, 2, 1, 3])];
            tensor<int32, [3]> var_581 = const()[name = tensor<string, []>("op_581"), val = tensor<int32, [3]>([1, 257, 384])];
            tensor<fp16, [1, 257, 6, 64]> var_579_cast_fp16 = transpose(perm = var_579_perm_0, x = x_77_cast_fp16)[name = tensor<string, []>("transpose_84")];
            tensor<fp16, [1, 257, 384]> input_147_cast_fp16 = reshape(shape = var_581, x = var_579_cast_fp16)[name = tensor<string, []>("input_147_cast_fp16")];
            tensor<fp16, [384, 384]> backbone_blocks_8_attn_proj_weight_to_fp16 = const()[name = tensor<string, []>("backbone_blocks_8_attn_proj_weight_to_fp16"), val = tensor<fp16, [384, 384]>(BLOBFILE(path = tensor<string, []>("@model_path/weights/weight.bin"), offset = tensor<uint64, []>(29950528)))];
            tensor<fp16, [384]> backbone_blocks_8_attn_proj_bias_to_fp16 = const()[name = tensor<string, []>("backbone_blocks_8_attn_proj_bias_to_fp16"), val = tensor<fp16, [384]>(BLOBFILE(path = tensor<string, []>("@model_path/weights/weight.bin"), offset = tensor<uint64, []>(30245504)))];
            tensor<fp16, [1, 257, 384]> linear_33_cast_fp16 = linear(bias = backbone_blocks_8_attn_proj_bias_to_fp16, weight = backbone_blocks_8_attn_proj_weight_to_fp16, x = input_147_cast_fp16)[name = tensor<string, []>("linear_33_cast_fp16")];
            tensor<fp16, [384]> backbone_blocks_8_ls1_gamma_to_fp16 = const()[name = tensor<string, []>("backbone_blocks_8_ls1_gamma_to_fp16"), val = tensor<fp16, [384]>(BLOBFILE(path = tensor<string, []>("@model_path/weights/weight.bin"), offset = tensor<uint64, []>(30246336)))];
            tensor<fp16, [1, 257, 384]> var_588_cast_fp16 = mul(x = linear_33_cast_fp16, y = backbone_blocks_8_ls1_gamma_to_fp16)[name = tensor<string, []>("op_588_cast_fp16")];
            tensor<fp16, [1, 257, 384]> input_151_cast_fp16 = add(x = input_145_cast_fp16, y = var_588_cast_fp16)[name = tensor<string, []>("input_151_cast_fp16")];
            tensor<int32, [1]> input_153_axes_0 = const()[name = tensor<string, []>("input_153_axes_0"), val = tensor<int32, [1]>([-1])];
            tensor<fp16, [384]> backbone_blocks_8_norm2_weight_to_fp16 = const()[name = tensor<string, []>("backbone_blocks_8_norm2_weight_to_fp16"), val = tensor<fp16, [384]>(BLOBFILE(path = tensor<string, []>("@model_path/weights/weight.bin"), offset = tensor<uint64, []>(30247168)))];
            tensor<fp16, [384]> backbone_blocks_8_norm2_bias_to_fp16 = const()[name = tensor<string, []>("backbone_blocks_8_norm2_bias_to_fp16"), val = tensor<fp16, [384]>(BLOBFILE(path = tensor<string, []>("@model_path/weights/weight.bin"), offset = tensor<uint64, []>(30248000)))];
            tensor<fp16, [1, 257, 384]> input_153_cast_fp16 = layer_norm(axes = input_153_axes_0, beta = backbone_blocks_8_norm2_bias_to_fp16, epsilon = var_9_to_fp16, gamma = backbone_blocks_8_norm2_weight_to_fp16, x = input_151_cast_fp16)[name = tensor<string, []>("input_153_cast_fp16")];
            tensor<fp16, [1536, 384]> backbone_blocks_8_mlp_fc1_weight_to_fp16 = const()[name = tensor<string, []>("backbone_blocks_8_mlp_fc1_weight_to_fp16"), val = tensor<fp16, [1536, 384]>(BLOBFILE(path = tensor<string, []>("@model_path/weights/weight.bin"), offset = tensor<uint64, []>(30248832)))];
            tensor<fp16, [1536]> backbone_blocks_8_mlp_fc1_bias_to_fp16 = const()[name = tensor<string, []>("backbone_blocks_8_mlp_fc1_bias_to_fp16"), val = tensor<fp16, [1536]>(BLOBFILE(path = tensor<string, []>("@model_path/weights/weight.bin"), offset = tensor<uint64, []>(31428544)))];
            tensor<fp16, [1, 257, 1536]> linear_34_cast_fp16 = linear(bias = backbone_blocks_8_mlp_fc1_bias_to_fp16, weight = backbone_blocks_8_mlp_fc1_weight_to_fp16, x = input_153_cast_fp16)[name = tensor<string, []>("linear_34_cast_fp16")];
            tensor<string, []> input_157_mode_0 = const()[name = tensor<string, []>("input_157_mode_0"), val = tensor<string, []>("EXACT")];
            tensor<fp16, [1, 257, 1536]> input_157_cast_fp16 = gelu(mode = input_157_mode_0, x = linear_34_cast_fp16)[name = tensor<string, []>("input_157_cast_fp16")];
            tensor<fp16, [384, 1536]> backbone_blocks_8_mlp_fc2_weight_to_fp16 = const()[name = tensor<string, []>("backbone_blocks_8_mlp_fc2_weight_to_fp16"), val = tensor<fp16, [384, 1536]>(BLOBFILE(path = tensor<string, []>("@model_path/weights/weight.bin"), offset = tensor<uint64, []>(31431680)))];
            tensor<fp16, [384]> backbone_blocks_8_mlp_fc2_bias_to_fp16 = const()[name = tensor<string, []>("backbone_blocks_8_mlp_fc2_bias_to_fp16"), val = tensor<fp16, [384]>(BLOBFILE(path = tensor<string, []>("@model_path/weights/weight.bin"), offset = tensor<uint64, []>(32611392)))];
            tensor<fp16, [1, 257, 384]> linear_35_cast_fp16 = linear(bias = backbone_blocks_8_mlp_fc2_bias_to_fp16, weight = backbone_blocks_8_mlp_fc2_weight_to_fp16, x = input_157_cast_fp16)[name = tensor<string, []>("linear_35_cast_fp16")];
            tensor<fp16, [384]> backbone_blocks_8_ls2_gamma_to_fp16 = const()[name = tensor<string, []>("backbone_blocks_8_ls2_gamma_to_fp16"), val = tensor<fp16, [384]>(BLOBFILE(path = tensor<string, []>("@model_path/weights/weight.bin"), offset = tensor<uint64, []>(32612224)))];
            tensor<fp16, [1, 257, 384]> var_606_cast_fp16 = mul(x = linear_35_cast_fp16, y = backbone_blocks_8_ls2_gamma_to_fp16)[name = tensor<string, []>("op_606_cast_fp16")];
            tensor<fp16, [1, 257, 384]> input_163_cast_fp16 = add(x = input_151_cast_fp16, y = var_606_cast_fp16)[name = tensor<string, []>("input_163_cast_fp16")];
            tensor<int32, [1]> x_83_axes_0 = const()[name = tensor<string, []>("x_83_axes_0"), val = tensor<int32, [1]>([-1])];
            tensor<fp16, [384]> backbone_blocks_9_norm1_weight_to_fp16 = const()[name = tensor<string, []>("backbone_blocks_9_norm1_weight_to_fp16"), val = tensor<fp16, [384]>(BLOBFILE(path = tensor<string, []>("@model_path/weights/weight.bin"), offset = tensor<uint64, []>(32613056)))];
            tensor<fp16, [384]> backbone_blocks_9_norm1_bias_to_fp16 = const()[name = tensor<string, []>("backbone_blocks_9_norm1_bias_to_fp16"), val = tensor<fp16, [384]>(BLOBFILE(path = tensor<string, []>("@model_path/weights/weight.bin"), offset = tensor<uint64, []>(32613888)))];
            tensor<fp16, [1, 257, 384]> x_83_cast_fp16 = layer_norm(axes = x_83_axes_0, beta = backbone_blocks_9_norm1_bias_to_fp16, epsilon = var_9_to_fp16, gamma = backbone_blocks_9_norm1_weight_to_fp16, x = input_163_cast_fp16)[name = tensor<string, []>("x_83_cast_fp16")];
            tensor<fp16, [1152, 384]> backbone_blocks_9_attn_qkv_weight_to_fp16 = const()[name = tensor<string, []>("backbone_blocks_9_attn_qkv_weight_to_fp16"), val = tensor<fp16, [1152, 384]>(BLOBFILE(path = tensor<string, []>("@model_path/weights/weight.bin"), offset = tensor<uint64, []>(32614720)))];
            tensor<fp16, [1152]> backbone_blocks_9_attn_qkv_bias_to_fp16 = const()[name = tensor<string, []>("backbone_blocks_9_attn_qkv_bias_to_fp16"), val = tensor<fp16, [1152]>(BLOBFILE(path = tensor<string, []>("@model_path/weights/weight.bin"), offset = tensor<uint64, []>(33499520)))];
            tensor<fp16, [1, 257, 1152]> linear_36_cast_fp16 = linear(bias = backbone_blocks_9_attn_qkv_bias_to_fp16, weight = backbone_blocks_9_attn_qkv_weight_to_fp16, x = x_83_cast_fp16)[name = tensor<string, []>("linear_36_cast_fp16")];
            tensor<int32, [5]> var_629 = const()[name = tensor<string, []>("op_629"), val = tensor<int32, [5]>([1, 257, 3, 6, 64])];
            tensor<fp16, [1, 257, 3, 6, 64]> qkv_19_cast_fp16 = reshape(shape = var_629, x = linear_36_cast_fp16)[name = tensor<string, []>("qkv_19_cast_fp16")];
            tensor<int32, [3]> var_631_split_sizes_0 = const()[name = tensor<string, []>("op_631_split_sizes_0"), val = tensor<int32, [3]>([1, 1, 1])];
            tensor<int32, []> var_631_axis_0 = const()[name = tensor<string, []>("op_631_axis_0"), val = tensor<int32, []>(2)];
            tensor<fp16, [1, 257, 1, 6, 64]> var_631_cast_fp16_0, tensor<fp16, [1, 257, 1, 6, 64]> var_631_cast_fp16_1, tensor<fp16, [1, 257, 1, 6, 64]> var_631_cast_fp16_2 = split(axis = var_631_axis_0, split_sizes = var_631_split_sizes_0, x = qkv_19_cast_fp16)[name = tensor<string, []>("op_631_cast_fp16")];
            tensor<int32, [1]> squeeze_27_axes_0 = const()[name = tensor<string, []>("squeeze_27_axes_0"), val = tensor<int32, [1]>([2])];
            tensor<fp16, [1, 257, 6, 64]> squeeze_27_cast_fp16 = squeeze(axes = squeeze_27_axes_0, x = var_631_cast_fp16_0)[name = tensor<string, []>("squeeze_27_cast_fp16")];
            tensor<int32, [1]> squeeze_28_axes_0 = const()[name = tensor<string, []>("squeeze_28_axes_0"), val = tensor<int32, [1]>([2])];
            tensor<fp16, [1, 257, 6, 64]> squeeze_28_cast_fp16 = squeeze(axes = squeeze_28_axes_0, x = var_631_cast_fp16_1)[name = tensor<string, []>("squeeze_28_cast_fp16")];
            tensor<int32, [1]> squeeze_29_axes_0 = const()[name = tensor<string, []>("squeeze_29_axes_0"), val = tensor<int32, [1]>([2])];
            tensor<fp16, [1, 257, 6, 64]> squeeze_29_cast_fp16 = squeeze(axes = squeeze_29_axes_0, x = var_631_cast_fp16_2)[name = tensor<string, []>("squeeze_29_cast_fp16")];
            tensor<int32, [4]> v_19_perm_0 = const()[name = tensor<string, []>("v_19_perm_0"), val = tensor<int32, [4]>([0, 2, 1, 3])];
            tensor<fp16, []> mul_9_y_0_to_fp16 = const()[name = tensor<string, []>("mul_9_y_0_to_fp16"), val = tensor<fp16, []>(0x1p-3)];
            tensor<fp16, [1, 257, 6, 64]> mul_9_cast_fp16 = mul(x = squeeze_27_cast_fp16, y = mul_9_y_0_to_fp16)[name = tensor<string, []>("mul_9_cast_fp16")];
            tensor<bool, []> matmul_9_transpose_y_0 = const()[name = tensor<string, []>("matmul_9_transpose_y_0"), val = tensor<bool, []>(true)];
            tensor<bool, []> matmul_9_transpose_x_0 = const()[name = tensor<string, []>("matmul_9_transpose_x_0"), val = tensor<bool, []>(false)];
            tensor<int32, [4]> transpose_66_perm_0 = const()[name = tensor<string, []>("transpose_66_perm_0"), val = tensor<int32, [4]>([0, 2, -3, -1])];
            tensor<int32, [4]> transpose_67_perm_0 = const()[name = tensor<string, []>("transpose_67_perm_0"), val = tensor<int32, [4]>([0, 2, -3, -1])];
            tensor<fp16, [1, 6, 257, 64]> transpose_67 = transpose(perm = transpose_67_perm_0, x = squeeze_28_cast_fp16)[name = tensor<string, []>("transpose_81")];
            tensor<fp16, [1, 6, 257, 64]> transpose_66 = transpose(perm = transpose_66_perm_0, x = mul_9_cast_fp16)[name = tensor<string, []>("transpose_82")];
            tensor<fp16, [1, 6, 257, 257]> matmul_9_cast_fp16 = matmul(transpose_x = matmul_9_transpose_x_0, transpose_y = matmul_9_transpose_y_0, x = transpose_66, y = transpose_67)[name = tensor<string, []>("matmul_9_cast_fp16")];
            tensor<int32, []> softmax_9_axis_0 = const()[name = tensor<string, []>("softmax_9_axis_0"), val = tensor<int32, []>(-1)];
            tensor<fp16, [1, 6, 257, 257]> softmax_9_cast_fp16 = softmax(axis = softmax_9_axis_0, x = matmul_9_cast_fp16)[name = tensor<string, []>("softmax_9_cast_fp16")];
            tensor<bool, []> x_85_transpose_x_0 = const()[name = tensor<string, []>("x_85_transpose_x_0"), val = tensor<bool, []>(false)];
            tensor<bool, []> x_85_transpose_y_0 = const()[name = tensor<string, []>("x_85_transpose_y_0"), val = tensor<bool, []>(false)];
            tensor<fp16, [1, 6, 257, 64]> v_19_cast_fp16 = transpose(perm = v_19_perm_0, x = squeeze_29_cast_fp16)[name = tensor<string, []>("transpose_83")];
            tensor<fp16, [1, 6, 257, 64]> x_85_cast_fp16 = matmul(transpose_x = x_85_transpose_x_0, transpose_y = x_85_transpose_y_0, x = softmax_9_cast_fp16, y = v_19_cast_fp16)[name = tensor<string, []>("x_85_cast_fp16")];
            tensor<int32, [4]> var_639_perm_0 = const()[name = tensor<string, []>("op_639_perm_0"), val = tensor<int32, [4]>([0, 2, 1, 3])];
            tensor<int32, [3]> var_641 = const()[name = tensor<string, []>("op_641"), val = tensor<int32, [3]>([1, 257, 384])];
            tensor<fp16, [1, 257, 6, 64]> var_639_cast_fp16 = transpose(perm = var_639_perm_0, x = x_85_cast_fp16)[name = tensor<string, []>("transpose_80")];
            tensor<fp16, [1, 257, 384]> input_165_cast_fp16 = reshape(shape = var_641, x = var_639_cast_fp16)[name = tensor<string, []>("input_165_cast_fp16")];
            tensor<fp16, [384, 384]> backbone_blocks_9_attn_proj_weight_to_fp16 = const()[name = tensor<string, []>("backbone_blocks_9_attn_proj_weight_to_fp16"), val = tensor<fp16, [384, 384]>(BLOBFILE(path = tensor<string, []>("@model_path/weights/weight.bin"), offset = tensor<uint64, []>(33501888)))];
            tensor<fp16, [384]> backbone_blocks_9_attn_proj_bias_to_fp16 = const()[name = tensor<string, []>("backbone_blocks_9_attn_proj_bias_to_fp16"), val = tensor<fp16, [384]>(BLOBFILE(path = tensor<string, []>("@model_path/weights/weight.bin"), offset = tensor<uint64, []>(33796864)))];
            tensor<fp16, [1, 257, 384]> linear_37_cast_fp16 = linear(bias = backbone_blocks_9_attn_proj_bias_to_fp16, weight = backbone_blocks_9_attn_proj_weight_to_fp16, x = input_165_cast_fp16)[name = tensor<string, []>("linear_37_cast_fp16")];
            tensor<fp16, [384]> backbone_blocks_9_ls1_gamma_to_fp16 = const()[name = tensor<string, []>("backbone_blocks_9_ls1_gamma_to_fp16"), val = tensor<fp16, [384]>(BLOBFILE(path = tensor<string, []>("@model_path/weights/weight.bin"), offset = tensor<uint64, []>(33797696)))];
            tensor<fp16, [1, 257, 384]> var_648_cast_fp16 = mul(x = linear_37_cast_fp16, y = backbone_blocks_9_ls1_gamma_to_fp16)[name = tensor<string, []>("op_648_cast_fp16")];
            tensor<fp16, [1, 257, 384]> input_169_cast_fp16 = add(x = input_163_cast_fp16, y = var_648_cast_fp16)[name = tensor<string, []>("input_169_cast_fp16")];
            tensor<int32, [1]> input_171_axes_0 = const()[name = tensor<string, []>("input_171_axes_0"), val = tensor<int32, [1]>([-1])];
            tensor<fp16, [384]> backbone_blocks_9_norm2_weight_to_fp16 = const()[name = tensor<string, []>("backbone_blocks_9_norm2_weight_to_fp16"), val = tensor<fp16, [384]>(BLOBFILE(path = tensor<string, []>("@model_path/weights/weight.bin"), offset = tensor<uint64, []>(33798528)))];
            tensor<fp16, [384]> backbone_blocks_9_norm2_bias_to_fp16 = const()[name = tensor<string, []>("backbone_blocks_9_norm2_bias_to_fp16"), val = tensor<fp16, [384]>(BLOBFILE(path = tensor<string, []>("@model_path/weights/weight.bin"), offset = tensor<uint64, []>(33799360)))];
            tensor<fp16, [1, 257, 384]> input_171_cast_fp16 = layer_norm(axes = input_171_axes_0, beta = backbone_blocks_9_norm2_bias_to_fp16, epsilon = var_9_to_fp16, gamma = backbone_blocks_9_norm2_weight_to_fp16, x = input_169_cast_fp16)[name = tensor<string, []>("input_171_cast_fp16")];
            tensor<fp16, [1536, 384]> backbone_blocks_9_mlp_fc1_weight_to_fp16 = const()[name = tensor<string, []>("backbone_blocks_9_mlp_fc1_weight_to_fp16"), val = tensor<fp16, [1536, 384]>(BLOBFILE(path = tensor<string, []>("@model_path/weights/weight.bin"), offset = tensor<uint64, []>(33800192)))];
            tensor<fp16, [1536]> backbone_blocks_9_mlp_fc1_bias_to_fp16 = const()[name = tensor<string, []>("backbone_blocks_9_mlp_fc1_bias_to_fp16"), val = tensor<fp16, [1536]>(BLOBFILE(path = tensor<string, []>("@model_path/weights/weight.bin"), offset = tensor<uint64, []>(34979904)))];
            tensor<fp16, [1, 257, 1536]> linear_38_cast_fp16 = linear(bias = backbone_blocks_9_mlp_fc1_bias_to_fp16, weight = backbone_blocks_9_mlp_fc1_weight_to_fp16, x = input_171_cast_fp16)[name = tensor<string, []>("linear_38_cast_fp16")];
            tensor<string, []> input_175_mode_0 = const()[name = tensor<string, []>("input_175_mode_0"), val = tensor<string, []>("EXACT")];
            tensor<fp16, [1, 257, 1536]> input_175_cast_fp16 = gelu(mode = input_175_mode_0, x = linear_38_cast_fp16)[name = tensor<string, []>("input_175_cast_fp16")];
            tensor<fp16, [384, 1536]> backbone_blocks_9_mlp_fc2_weight_to_fp16 = const()[name = tensor<string, []>("backbone_blocks_9_mlp_fc2_weight_to_fp16"), val = tensor<fp16, [384, 1536]>(BLOBFILE(path = tensor<string, []>("@model_path/weights/weight.bin"), offset = tensor<uint64, []>(34983040)))];
            tensor<fp16, [384]> backbone_blocks_9_mlp_fc2_bias_to_fp16 = const()[name = tensor<string, []>("backbone_blocks_9_mlp_fc2_bias_to_fp16"), val = tensor<fp16, [384]>(BLOBFILE(path = tensor<string, []>("@model_path/weights/weight.bin"), offset = tensor<uint64, []>(36162752)))];
            tensor<fp16, [1, 257, 384]> linear_39_cast_fp16 = linear(bias = backbone_blocks_9_mlp_fc2_bias_to_fp16, weight = backbone_blocks_9_mlp_fc2_weight_to_fp16, x = input_175_cast_fp16)[name = tensor<string, []>("linear_39_cast_fp16")];
            tensor<fp16, [384]> backbone_blocks_9_ls2_gamma_to_fp16 = const()[name = tensor<string, []>("backbone_blocks_9_ls2_gamma_to_fp16"), val = tensor<fp16, [384]>(BLOBFILE(path = tensor<string, []>("@model_path/weights/weight.bin"), offset = tensor<uint64, []>(36163584)))];
            tensor<fp16, [1, 257, 384]> var_666_cast_fp16 = mul(x = linear_39_cast_fp16, y = backbone_blocks_9_ls2_gamma_to_fp16)[name = tensor<string, []>("op_666_cast_fp16")];
            tensor<fp16, [1, 257, 384]> input_181_cast_fp16 = add(x = input_169_cast_fp16, y = var_666_cast_fp16)[name = tensor<string, []>("input_181_cast_fp16")];
            tensor<int32, [1]> x_91_axes_0 = const()[name = tensor<string, []>("x_91_axes_0"), val = tensor<int32, [1]>([-1])];
            tensor<fp16, [384]> backbone_blocks_10_norm1_weight_to_fp16 = const()[name = tensor<string, []>("backbone_blocks_10_norm1_weight_to_fp16"), val = tensor<fp16, [384]>(BLOBFILE(path = tensor<string, []>("@model_path/weights/weight.bin"), offset = tensor<uint64, []>(36164416)))];
            tensor<fp16, [384]> backbone_blocks_10_norm1_bias_to_fp16 = const()[name = tensor<string, []>("backbone_blocks_10_norm1_bias_to_fp16"), val = tensor<fp16, [384]>(BLOBFILE(path = tensor<string, []>("@model_path/weights/weight.bin"), offset = tensor<uint64, []>(36165248)))];
            tensor<fp16, [1, 257, 384]> x_91_cast_fp16 = layer_norm(axes = x_91_axes_0, beta = backbone_blocks_10_norm1_bias_to_fp16, epsilon = var_9_to_fp16, gamma = backbone_blocks_10_norm1_weight_to_fp16, x = input_181_cast_fp16)[name = tensor<string, []>("x_91_cast_fp16")];
            tensor<fp16, [1152, 384]> backbone_blocks_10_attn_qkv_weight_to_fp16 = const()[name = tensor<string, []>("backbone_blocks_10_attn_qkv_weight_to_fp16"), val = tensor<fp16, [1152, 384]>(BLOBFILE(path = tensor<string, []>("@model_path/weights/weight.bin"), offset = tensor<uint64, []>(36166080)))];
            tensor<fp16, [1152]> backbone_blocks_10_attn_qkv_bias_to_fp16 = const()[name = tensor<string, []>("backbone_blocks_10_attn_qkv_bias_to_fp16"), val = tensor<fp16, [1152]>(BLOBFILE(path = tensor<string, []>("@model_path/weights/weight.bin"), offset = tensor<uint64, []>(37050880)))];
            tensor<fp16, [1, 257, 1152]> linear_40_cast_fp16 = linear(bias = backbone_blocks_10_attn_qkv_bias_to_fp16, weight = backbone_blocks_10_attn_qkv_weight_to_fp16, x = x_91_cast_fp16)[name = tensor<string, []>("linear_40_cast_fp16")];
            tensor<int32, [5]> var_689 = const()[name = tensor<string, []>("op_689"), val = tensor<int32, [5]>([1, 257, 3, 6, 64])];
            tensor<fp16, [1, 257, 3, 6, 64]> qkv_21_cast_fp16 = reshape(shape = var_689, x = linear_40_cast_fp16)[name = tensor<string, []>("qkv_21_cast_fp16")];
            tensor<int32, [3]> var_691_split_sizes_0 = const()[name = tensor<string, []>("op_691_split_sizes_0"), val = tensor<int32, [3]>([1, 1, 1])];
            tensor<int32, []> var_691_axis_0 = const()[name = tensor<string, []>("op_691_axis_0"), val = tensor<int32, []>(2)];
            tensor<fp16, [1, 257, 1, 6, 64]> var_691_cast_fp16_0, tensor<fp16, [1, 257, 1, 6, 64]> var_691_cast_fp16_1, tensor<fp16, [1, 257, 1, 6, 64]> var_691_cast_fp16_2 = split(axis = var_691_axis_0, split_sizes = var_691_split_sizes_0, x = qkv_21_cast_fp16)[name = tensor<string, []>("op_691_cast_fp16")];
            tensor<int32, [1]> squeeze_30_axes_0 = const()[name = tensor<string, []>("squeeze_30_axes_0"), val = tensor<int32, [1]>([2])];
            tensor<fp16, [1, 257, 6, 64]> squeeze_30_cast_fp16 = squeeze(axes = squeeze_30_axes_0, x = var_691_cast_fp16_0)[name = tensor<string, []>("squeeze_30_cast_fp16")];
            tensor<int32, [1]> squeeze_31_axes_0 = const()[name = tensor<string, []>("squeeze_31_axes_0"), val = tensor<int32, [1]>([2])];
            tensor<fp16, [1, 257, 6, 64]> squeeze_31_cast_fp16 = squeeze(axes = squeeze_31_axes_0, x = var_691_cast_fp16_1)[name = tensor<string, []>("squeeze_31_cast_fp16")];
            tensor<int32, [1]> squeeze_32_axes_0 = const()[name = tensor<string, []>("squeeze_32_axes_0"), val = tensor<int32, [1]>([2])];
            tensor<fp16, [1, 257, 6, 64]> squeeze_32_cast_fp16 = squeeze(axes = squeeze_32_axes_0, x = var_691_cast_fp16_2)[name = tensor<string, []>("squeeze_32_cast_fp16")];
            tensor<int32, [4]> v_21_perm_0 = const()[name = tensor<string, []>("v_21_perm_0"), val = tensor<int32, [4]>([0, 2, 1, 3])];
            tensor<fp16, []> mul_10_y_0_to_fp16 = const()[name = tensor<string, []>("mul_10_y_0_to_fp16"), val = tensor<fp16, []>(0x1p-3)];
            tensor<fp16, [1, 257, 6, 64]> mul_10_cast_fp16 = mul(x = squeeze_30_cast_fp16, y = mul_10_y_0_to_fp16)[name = tensor<string, []>("mul_10_cast_fp16")];
            tensor<bool, []> matmul_10_transpose_y_0 = const()[name = tensor<string, []>("matmul_10_transpose_y_0"), val = tensor<bool, []>(true)];
            tensor<bool, []> matmul_10_transpose_x_0 = const()[name = tensor<string, []>("matmul_10_transpose_x_0"), val = tensor<bool, []>(false)];
            tensor<int32, [4]> transpose_68_perm_0 = const()[name = tensor<string, []>("transpose_68_perm_0"), val = tensor<int32, [4]>([0, 2, -3, -1])];
            tensor<int32, [4]> transpose_69_perm_0 = const()[name = tensor<string, []>("transpose_69_perm_0"), val = tensor<int32, [4]>([0, 2, -3, -1])];
            tensor<fp16, [1, 6, 257, 64]> transpose_69 = transpose(perm = transpose_69_perm_0, x = squeeze_31_cast_fp16)[name = tensor<string, []>("transpose_77")];
            tensor<fp16, [1, 6, 257, 64]> transpose_68 = transpose(perm = transpose_68_perm_0, x = mul_10_cast_fp16)[name = tensor<string, []>("transpose_78")];
            tensor<fp16, [1, 6, 257, 257]> matmul_10_cast_fp16 = matmul(transpose_x = matmul_10_transpose_x_0, transpose_y = matmul_10_transpose_y_0, x = transpose_68, y = transpose_69)[name = tensor<string, []>("matmul_10_cast_fp16")];
            tensor<int32, []> softmax_10_axis_0 = const()[name = tensor<string, []>("softmax_10_axis_0"), val = tensor<int32, []>(-1)];
            tensor<fp16, [1, 6, 257, 257]> softmax_10_cast_fp16 = softmax(axis = softmax_10_axis_0, x = matmul_10_cast_fp16)[name = tensor<string, []>("softmax_10_cast_fp16")];
            tensor<bool, []> x_93_transpose_x_0 = const()[name = tensor<string, []>("x_93_transpose_x_0"), val = tensor<bool, []>(false)];
            tensor<bool, []> x_93_transpose_y_0 = const()[name = tensor<string, []>("x_93_transpose_y_0"), val = tensor<bool, []>(false)];
            tensor<fp16, [1, 6, 257, 64]> v_21_cast_fp16 = transpose(perm = v_21_perm_0, x = squeeze_32_cast_fp16)[name = tensor<string, []>("transpose_79")];
            tensor<fp16, [1, 6, 257, 64]> x_93_cast_fp16 = matmul(transpose_x = x_93_transpose_x_0, transpose_y = x_93_transpose_y_0, x = softmax_10_cast_fp16, y = v_21_cast_fp16)[name = tensor<string, []>("x_93_cast_fp16")];
            tensor<int32, [4]> var_699_perm_0 = const()[name = tensor<string, []>("op_699_perm_0"), val = tensor<int32, [4]>([0, 2, 1, 3])];
            tensor<int32, [3]> var_701 = const()[name = tensor<string, []>("op_701"), val = tensor<int32, [3]>([1, 257, 384])];
            tensor<fp16, [1, 257, 6, 64]> var_699_cast_fp16 = transpose(perm = var_699_perm_0, x = x_93_cast_fp16)[name = tensor<string, []>("transpose_76")];
            tensor<fp16, [1, 257, 384]> input_183_cast_fp16 = reshape(shape = var_701, x = var_699_cast_fp16)[name = tensor<string, []>("input_183_cast_fp16")];
            tensor<fp16, [384, 384]> backbone_blocks_10_attn_proj_weight_to_fp16 = const()[name = tensor<string, []>("backbone_blocks_10_attn_proj_weight_to_fp16"), val = tensor<fp16, [384, 384]>(BLOBFILE(path = tensor<string, []>("@model_path/weights/weight.bin"), offset = tensor<uint64, []>(37053248)))];
            tensor<fp16, [384]> backbone_blocks_10_attn_proj_bias_to_fp16 = const()[name = tensor<string, []>("backbone_blocks_10_attn_proj_bias_to_fp16"), val = tensor<fp16, [384]>(BLOBFILE(path = tensor<string, []>("@model_path/weights/weight.bin"), offset = tensor<uint64, []>(37348224)))];
            tensor<fp16, [1, 257, 384]> linear_41_cast_fp16 = linear(bias = backbone_blocks_10_attn_proj_bias_to_fp16, weight = backbone_blocks_10_attn_proj_weight_to_fp16, x = input_183_cast_fp16)[name = tensor<string, []>("linear_41_cast_fp16")];
            tensor<fp16, [384]> backbone_blocks_10_ls1_gamma_to_fp16 = const()[name = tensor<string, []>("backbone_blocks_10_ls1_gamma_to_fp16"), val = tensor<fp16, [384]>(BLOBFILE(path = tensor<string, []>("@model_path/weights/weight.bin"), offset = tensor<uint64, []>(37349056)))];
            tensor<fp16, [1, 257, 384]> var_708_cast_fp16 = mul(x = linear_41_cast_fp16, y = backbone_blocks_10_ls1_gamma_to_fp16)[name = tensor<string, []>("op_708_cast_fp16")];
            tensor<fp16, [1, 257, 384]> input_187_cast_fp16 = add(x = input_181_cast_fp16, y = var_708_cast_fp16)[name = tensor<string, []>("input_187_cast_fp16")];
            tensor<int32, [1]> input_189_axes_0 = const()[name = tensor<string, []>("input_189_axes_0"), val = tensor<int32, [1]>([-1])];
            tensor<fp16, [384]> backbone_blocks_10_norm2_weight_to_fp16 = const()[name = tensor<string, []>("backbone_blocks_10_norm2_weight_to_fp16"), val = tensor<fp16, [384]>(BLOBFILE(path = tensor<string, []>("@model_path/weights/weight.bin"), offset = tensor<uint64, []>(37349888)))];
            tensor<fp16, [384]> backbone_blocks_10_norm2_bias_to_fp16 = const()[name = tensor<string, []>("backbone_blocks_10_norm2_bias_to_fp16"), val = tensor<fp16, [384]>(BLOBFILE(path = tensor<string, []>("@model_path/weights/weight.bin"), offset = tensor<uint64, []>(37350720)))];
            tensor<fp16, [1, 257, 384]> input_189_cast_fp16 = layer_norm(axes = input_189_axes_0, beta = backbone_blocks_10_norm2_bias_to_fp16, epsilon = var_9_to_fp16, gamma = backbone_blocks_10_norm2_weight_to_fp16, x = input_187_cast_fp16)[name = tensor<string, []>("input_189_cast_fp16")];
            tensor<fp16, [1536, 384]> backbone_blocks_10_mlp_fc1_weight_to_fp16 = const()[name = tensor<string, []>("backbone_blocks_10_mlp_fc1_weight_to_fp16"), val = tensor<fp16, [1536, 384]>(BLOBFILE(path = tensor<string, []>("@model_path/weights/weight.bin"), offset = tensor<uint64, []>(37351552)))];
            tensor<fp16, [1536]> backbone_blocks_10_mlp_fc1_bias_to_fp16 = const()[name = tensor<string, []>("backbone_blocks_10_mlp_fc1_bias_to_fp16"), val = tensor<fp16, [1536]>(BLOBFILE(path = tensor<string, []>("@model_path/weights/weight.bin"), offset = tensor<uint64, []>(38531264)))];
            tensor<fp16, [1, 257, 1536]> linear_42_cast_fp16 = linear(bias = backbone_blocks_10_mlp_fc1_bias_to_fp16, weight = backbone_blocks_10_mlp_fc1_weight_to_fp16, x = input_189_cast_fp16)[name = tensor<string, []>("linear_42_cast_fp16")];
            tensor<string, []> input_193_mode_0 = const()[name = tensor<string, []>("input_193_mode_0"), val = tensor<string, []>("EXACT")];
            tensor<fp16, [1, 257, 1536]> input_193_cast_fp16 = gelu(mode = input_193_mode_0, x = linear_42_cast_fp16)[name = tensor<string, []>("input_193_cast_fp16")];
            tensor<fp16, [384, 1536]> backbone_blocks_10_mlp_fc2_weight_to_fp16 = const()[name = tensor<string, []>("backbone_blocks_10_mlp_fc2_weight_to_fp16"), val = tensor<fp16, [384, 1536]>(BLOBFILE(path = tensor<string, []>("@model_path/weights/weight.bin"), offset = tensor<uint64, []>(38534400)))];
            tensor<fp16, [384]> backbone_blocks_10_mlp_fc2_bias_to_fp16 = const()[name = tensor<string, []>("backbone_blocks_10_mlp_fc2_bias_to_fp16"), val = tensor<fp16, [384]>(BLOBFILE(path = tensor<string, []>("@model_path/weights/weight.bin"), offset = tensor<uint64, []>(39714112)))];
            tensor<fp16, [1, 257, 384]> linear_43_cast_fp16 = linear(bias = backbone_blocks_10_mlp_fc2_bias_to_fp16, weight = backbone_blocks_10_mlp_fc2_weight_to_fp16, x = input_193_cast_fp16)[name = tensor<string, []>("linear_43_cast_fp16")];
            tensor<fp16, [384]> backbone_blocks_10_ls2_gamma_to_fp16 = const()[name = tensor<string, []>("backbone_blocks_10_ls2_gamma_to_fp16"), val = tensor<fp16, [384]>(BLOBFILE(path = tensor<string, []>("@model_path/weights/weight.bin"), offset = tensor<uint64, []>(39714944)))];
            tensor<fp16, [1, 257, 384]> var_726_cast_fp16 = mul(x = linear_43_cast_fp16, y = backbone_blocks_10_ls2_gamma_to_fp16)[name = tensor<string, []>("op_726_cast_fp16")];
            tensor<fp16, [1, 257, 384]> input_199_cast_fp16 = add(x = input_187_cast_fp16, y = var_726_cast_fp16)[name = tensor<string, []>("input_199_cast_fp16")];
            tensor<int32, [1]> x_99_axes_0 = const()[name = tensor<string, []>("x_99_axes_0"), val = tensor<int32, [1]>([-1])];
            tensor<fp16, [384]> backbone_blocks_11_norm1_weight_to_fp16 = const()[name = tensor<string, []>("backbone_blocks_11_norm1_weight_to_fp16"), val = tensor<fp16, [384]>(BLOBFILE(path = tensor<string, []>("@model_path/weights/weight.bin"), offset = tensor<uint64, []>(39715776)))];
            tensor<fp16, [384]> backbone_blocks_11_norm1_bias_to_fp16 = const()[name = tensor<string, []>("backbone_blocks_11_norm1_bias_to_fp16"), val = tensor<fp16, [384]>(BLOBFILE(path = tensor<string, []>("@model_path/weights/weight.bin"), offset = tensor<uint64, []>(39716608)))];
            tensor<fp16, [1, 257, 384]> x_99_cast_fp16 = layer_norm(axes = x_99_axes_0, beta = backbone_blocks_11_norm1_bias_to_fp16, epsilon = var_9_to_fp16, gamma = backbone_blocks_11_norm1_weight_to_fp16, x = input_199_cast_fp16)[name = tensor<string, []>("x_99_cast_fp16")];
            tensor<fp16, [1152, 384]> backbone_blocks_11_attn_qkv_weight_to_fp16 = const()[name = tensor<string, []>("backbone_blocks_11_attn_qkv_weight_to_fp16"), val = tensor<fp16, [1152, 384]>(BLOBFILE(path = tensor<string, []>("@model_path/weights/weight.bin"), offset = tensor<uint64, []>(39717440)))];
            tensor<fp16, [1152]> backbone_blocks_11_attn_qkv_bias_to_fp16 = const()[name = tensor<string, []>("backbone_blocks_11_attn_qkv_bias_to_fp16"), val = tensor<fp16, [1152]>(BLOBFILE(path = tensor<string, []>("@model_path/weights/weight.bin"), offset = tensor<uint64, []>(40602240)))];
            tensor<fp16, [1, 257, 1152]> linear_44_cast_fp16 = linear(bias = backbone_blocks_11_attn_qkv_bias_to_fp16, weight = backbone_blocks_11_attn_qkv_weight_to_fp16, x = x_99_cast_fp16)[name = tensor<string, []>("linear_44_cast_fp16")];
            tensor<int32, [5]> var_749 = const()[name = tensor<string, []>("op_749"), val = tensor<int32, [5]>([1, 257, 3, 6, 64])];
            tensor<fp16, [1, 257, 3, 6, 64]> qkv_23_cast_fp16 = reshape(shape = var_749, x = linear_44_cast_fp16)[name = tensor<string, []>("qkv_23_cast_fp16")];
            tensor<int32, [3]> var_751_split_sizes_0 = const()[name = tensor<string, []>("op_751_split_sizes_0"), val = tensor<int32, [3]>([1, 1, 1])];
            tensor<int32, []> var_751_axis_0 = const()[name = tensor<string, []>("op_751_axis_0"), val = tensor<int32, []>(2)];
            tensor<fp16, [1, 257, 1, 6, 64]> var_751_cast_fp16_0, tensor<fp16, [1, 257, 1, 6, 64]> var_751_cast_fp16_1, tensor<fp16, [1, 257, 1, 6, 64]> var_751_cast_fp16_2 = split(axis = var_751_axis_0, split_sizes = var_751_split_sizes_0, x = qkv_23_cast_fp16)[name = tensor<string, []>("op_751_cast_fp16")];
            tensor<int32, [1]> squeeze_33_axes_0 = const()[name = tensor<string, []>("squeeze_33_axes_0"), val = tensor<int32, [1]>([2])];
            tensor<fp16, [1, 257, 6, 64]> squeeze_33_cast_fp16 = squeeze(axes = squeeze_33_axes_0, x = var_751_cast_fp16_0)[name = tensor<string, []>("squeeze_33_cast_fp16")];
            tensor<int32, [1]> squeeze_34_axes_0 = const()[name = tensor<string, []>("squeeze_34_axes_0"), val = tensor<int32, [1]>([2])];
            tensor<fp16, [1, 257, 6, 64]> squeeze_34_cast_fp16 = squeeze(axes = squeeze_34_axes_0, x = var_751_cast_fp16_1)[name = tensor<string, []>("squeeze_34_cast_fp16")];
            tensor<int32, [1]> squeeze_35_axes_0 = const()[name = tensor<string, []>("squeeze_35_axes_0"), val = tensor<int32, [1]>([2])];
            tensor<fp16, [1, 257, 6, 64]> squeeze_35_cast_fp16 = squeeze(axes = squeeze_35_axes_0, x = var_751_cast_fp16_2)[name = tensor<string, []>("squeeze_35_cast_fp16")];
            tensor<int32, [4]> v_perm_0 = const()[name = tensor<string, []>("v_perm_0"), val = tensor<int32, [4]>([0, 2, 1, 3])];
            tensor<fp16, []> mul_11_y_0_to_fp16 = const()[name = tensor<string, []>("mul_11_y_0_to_fp16"), val = tensor<fp16, []>(0x1p-3)];
            tensor<fp16, [1, 257, 6, 64]> mul_11_cast_fp16 = mul(x = squeeze_33_cast_fp16, y = mul_11_y_0_to_fp16)[name = tensor<string, []>("mul_11_cast_fp16")];
            tensor<bool, []> matmul_11_transpose_y_0 = const()[name = tensor<string, []>("matmul_11_transpose_y_0"), val = tensor<bool, []>(true)];
            tensor<bool, []> matmul_11_transpose_x_0 = const()[name = tensor<string, []>("matmul_11_transpose_x_0"), val = tensor<bool, []>(false)];
            tensor<int32, [4]> transpose_70_perm_0 = const()[name = tensor<string, []>("transpose_70_perm_0"), val = tensor<int32, [4]>([0, 2, -3, -1])];
            tensor<int32, [4]> transpose_71_perm_0 = const()[name = tensor<string, []>("transpose_71_perm_0"), val = tensor<int32, [4]>([0, 2, -3, -1])];
            tensor<fp16, [1, 6, 257, 64]> transpose_71 = transpose(perm = transpose_71_perm_0, x = squeeze_34_cast_fp16)[name = tensor<string, []>("transpose_73")];
            tensor<fp16, [1, 6, 257, 64]> transpose_70 = transpose(perm = transpose_70_perm_0, x = mul_11_cast_fp16)[name = tensor<string, []>("transpose_74")];
            tensor<fp16, [1, 6, 257, 257]> matmul_11_cast_fp16 = matmul(transpose_x = matmul_11_transpose_x_0, transpose_y = matmul_11_transpose_y_0, x = transpose_70, y = transpose_71)[name = tensor<string, []>("matmul_11_cast_fp16")];
            tensor<int32, []> softmax_11_axis_0 = const()[name = tensor<string, []>("softmax_11_axis_0"), val = tensor<int32, []>(-1)];
            tensor<fp16, [1, 6, 257, 257]> softmax_11_cast_fp16 = softmax(axis = softmax_11_axis_0, x = matmul_11_cast_fp16)[name = tensor<string, []>("softmax_11_cast_fp16")];
            tensor<bool, []> x_101_transpose_x_0 = const()[name = tensor<string, []>("x_101_transpose_x_0"), val = tensor<bool, []>(false)];
            tensor<bool, []> x_101_transpose_y_0 = const()[name = tensor<string, []>("x_101_transpose_y_0"), val = tensor<bool, []>(false)];
            tensor<fp16, [1, 6, 257, 64]> v_cast_fp16 = transpose(perm = v_perm_0, x = squeeze_35_cast_fp16)[name = tensor<string, []>("transpose_75")];
            tensor<fp16, [1, 6, 257, 64]> x_101_cast_fp16 = matmul(transpose_x = x_101_transpose_x_0, transpose_y = x_101_transpose_y_0, x = softmax_11_cast_fp16, y = v_cast_fp16)[name = tensor<string, []>("x_101_cast_fp16")];
            tensor<int32, [4]> var_759_perm_0 = const()[name = tensor<string, []>("op_759_perm_0"), val = tensor<int32, [4]>([0, 2, 1, 3])];
            tensor<int32, [3]> var_761 = const()[name = tensor<string, []>("op_761"), val = tensor<int32, [3]>([1, 257, 384])];
            tensor<fp16, [1, 257, 6, 64]> var_759_cast_fp16 = transpose(perm = var_759_perm_0, x = x_101_cast_fp16)[name = tensor<string, []>("transpose_72")];
            tensor<fp16, [1, 257, 384]> input_201_cast_fp16 = reshape(shape = var_761, x = var_759_cast_fp16)[name = tensor<string, []>("input_201_cast_fp16")];
            tensor<fp16, [384, 384]> backbone_blocks_11_attn_proj_weight_to_fp16 = const()[name = tensor<string, []>("backbone_blocks_11_attn_proj_weight_to_fp16"), val = tensor<fp16, [384, 384]>(BLOBFILE(path = tensor<string, []>("@model_path/weights/weight.bin"), offset = tensor<uint64, []>(40604608)))];
            tensor<fp16, [384]> backbone_blocks_11_attn_proj_bias_to_fp16 = const()[name = tensor<string, []>("backbone_blocks_11_attn_proj_bias_to_fp16"), val = tensor<fp16, [384]>(BLOBFILE(path = tensor<string, []>("@model_path/weights/weight.bin"), offset = tensor<uint64, []>(40899584)))];
            tensor<fp16, [1, 257, 384]> linear_45_cast_fp16 = linear(bias = backbone_blocks_11_attn_proj_bias_to_fp16, weight = backbone_blocks_11_attn_proj_weight_to_fp16, x = input_201_cast_fp16)[name = tensor<string, []>("linear_45_cast_fp16")];
            tensor<fp16, [384]> backbone_blocks_11_ls1_gamma_to_fp16 = const()[name = tensor<string, []>("backbone_blocks_11_ls1_gamma_to_fp16"), val = tensor<fp16, [384]>(BLOBFILE(path = tensor<string, []>("@model_path/weights/weight.bin"), offset = tensor<uint64, []>(40900416)))];
            tensor<fp16, [1, 257, 384]> var_768_cast_fp16 = mul(x = linear_45_cast_fp16, y = backbone_blocks_11_ls1_gamma_to_fp16)[name = tensor<string, []>("op_768_cast_fp16")];
            tensor<fp16, [1, 257, 384]> input_205_cast_fp16 = add(x = input_199_cast_fp16, y = var_768_cast_fp16)[name = tensor<string, []>("input_205_cast_fp16")];
            tensor<int32, [1]> input_207_axes_0 = const()[name = tensor<string, []>("input_207_axes_0"), val = tensor<int32, [1]>([-1])];
            tensor<fp16, [384]> backbone_blocks_11_norm2_weight_to_fp16 = const()[name = tensor<string, []>("backbone_blocks_11_norm2_weight_to_fp16"), val = tensor<fp16, [384]>(BLOBFILE(path = tensor<string, []>("@model_path/weights/weight.bin"), offset = tensor<uint64, []>(40901248)))];
            tensor<fp16, [384]> backbone_blocks_11_norm2_bias_to_fp16 = const()[name = tensor<string, []>("backbone_blocks_11_norm2_bias_to_fp16"), val = tensor<fp16, [384]>(BLOBFILE(path = tensor<string, []>("@model_path/weights/weight.bin"), offset = tensor<uint64, []>(40902080)))];
            tensor<fp16, [1, 257, 384]> input_207_cast_fp16 = layer_norm(axes = input_207_axes_0, beta = backbone_blocks_11_norm2_bias_to_fp16, epsilon = var_9_to_fp16, gamma = backbone_blocks_11_norm2_weight_to_fp16, x = input_205_cast_fp16)[name = tensor<string, []>("input_207_cast_fp16")];
            tensor<fp16, [1536, 384]> backbone_blocks_11_mlp_fc1_weight_to_fp16 = const()[name = tensor<string, []>("backbone_blocks_11_mlp_fc1_weight_to_fp16"), val = tensor<fp16, [1536, 384]>(BLOBFILE(path = tensor<string, []>("@model_path/weights/weight.bin"), offset = tensor<uint64, []>(40902912)))];
            tensor<fp16, [1536]> backbone_blocks_11_mlp_fc1_bias_to_fp16 = const()[name = tensor<string, []>("backbone_blocks_11_mlp_fc1_bias_to_fp16"), val = tensor<fp16, [1536]>(BLOBFILE(path = tensor<string, []>("@model_path/weights/weight.bin"), offset = tensor<uint64, []>(42082624)))];
            tensor<fp16, [1, 257, 1536]> linear_46_cast_fp16 = linear(bias = backbone_blocks_11_mlp_fc1_bias_to_fp16, weight = backbone_blocks_11_mlp_fc1_weight_to_fp16, x = input_207_cast_fp16)[name = tensor<string, []>("linear_46_cast_fp16")];
            tensor<string, []> input_211_mode_0 = const()[name = tensor<string, []>("input_211_mode_0"), val = tensor<string, []>("EXACT")];
            tensor<fp16, [1, 257, 1536]> input_211_cast_fp16 = gelu(mode = input_211_mode_0, x = linear_46_cast_fp16)[name = tensor<string, []>("input_211_cast_fp16")];
            tensor<fp16, [384, 1536]> backbone_blocks_11_mlp_fc2_weight_to_fp16 = const()[name = tensor<string, []>("backbone_blocks_11_mlp_fc2_weight_to_fp16"), val = tensor<fp16, [384, 1536]>(BLOBFILE(path = tensor<string, []>("@model_path/weights/weight.bin"), offset = tensor<uint64, []>(42085760)))];
            tensor<fp16, [384]> backbone_blocks_11_mlp_fc2_bias_to_fp16 = const()[name = tensor<string, []>("backbone_blocks_11_mlp_fc2_bias_to_fp16"), val = tensor<fp16, [384]>(BLOBFILE(path = tensor<string, []>("@model_path/weights/weight.bin"), offset = tensor<uint64, []>(43265472)))];
            tensor<fp16, [1, 257, 384]> linear_47_cast_fp16 = linear(bias = backbone_blocks_11_mlp_fc2_bias_to_fp16, weight = backbone_blocks_11_mlp_fc2_weight_to_fp16, x = input_211_cast_fp16)[name = tensor<string, []>("linear_47_cast_fp16")];
            tensor<fp16, [384]> backbone_blocks_11_ls2_gamma_to_fp16 = const()[name = tensor<string, []>("backbone_blocks_11_ls2_gamma_to_fp16"), val = tensor<fp16, [384]>(BLOBFILE(path = tensor<string, []>("@model_path/weights/weight.bin"), offset = tensor<uint64, []>(43266304)))];
            tensor<fp16, [1, 257, 384]> var_786_cast_fp16 = mul(x = linear_47_cast_fp16, y = backbone_blocks_11_ls2_gamma_to_fp16)[name = tensor<string, []>("op_786_cast_fp16")];
            tensor<fp16, [1, 257, 384]> input_217_cast_fp16 = add(x = input_205_cast_fp16, y = var_786_cast_fp16)[name = tensor<string, []>("input_217_cast_fp16")];
            tensor<int32, [1]> x_norm_axes_0 = const()[name = tensor<string, []>("x_norm_axes_0"), val = tensor<int32, [1]>([-1])];
            tensor<fp16, [384]> backbone_norm_weight_to_fp16 = const()[name = tensor<string, []>("backbone_norm_weight_to_fp16"), val = tensor<fp16, [384]>(BLOBFILE(path = tensor<string, []>("@model_path/weights/weight.bin"), offset = tensor<uint64, []>(43267136)))];
            tensor<fp16, [384]> backbone_norm_bias_to_fp16 = const()[name = tensor<string, []>("backbone_norm_bias_to_fp16"), val = tensor<fp16, [384]>(BLOBFILE(path = tensor<string, []>("@model_path/weights/weight.bin"), offset = tensor<uint64, []>(43267968)))];
            tensor<fp16, [1, 257, 384]> x_norm_cast_fp16 = layer_norm(axes = x_norm_axes_0, beta = backbone_norm_bias_to_fp16, epsilon = var_9_to_fp16, gamma = backbone_norm_weight_to_fp16, x = input_217_cast_fp16)[name = tensor<string, []>("x_norm_cast_fp16")];
            tensor<int32, [3]> input_begin_0 = const()[name = tensor<string, []>("input_begin_0"), val = tensor<int32, [3]>([0, 0, 0])];
            tensor<int32, [3]> input_end_0 = const()[name = tensor<string, []>("input_end_0"), val = tensor<int32, [3]>([1, 1, 384])];
            tensor<bool, [3]> input_end_mask_0 = const()[name = tensor<string, []>("input_end_mask_0"), val = tensor<bool, [3]>([true, false, true])];
            tensor<bool, [3]> input_squeeze_mask_0 = const()[name = tensor<string, []>("input_squeeze_mask_0"), val = tensor<bool, [3]>([false, true, false])];
            tensor<fp16, [1, 384]> input_cast_fp16 = slice_by_index(begin = input_begin_0, end = input_end_0, end_mask = input_end_mask_0, squeeze_mask = input_squeeze_mask_0, x = x_norm_cast_fp16)[name = tensor<string, []>("input_cast_fp16")];
            tensor<int32, [1]> var_796 = const()[name = tensor<string, []>("op_796"), val = tensor<int32, [1]>([-1])];
            tensor<bool, []> var_797 = const()[name = tensor<string, []>("op_797"), val = tensor<bool, []>(true)];
            tensor<fp16, [1, 1]> var_799_cast_fp16 = reduce_l2_norm(axes = var_796, keep_dims = var_797, x = input_cast_fp16)[name = tensor<string, []>("op_799_cast_fp16")];
            tensor<fp16, []> var_800_to_fp16 = const()[name = tensor<string, []>("op_800_to_fp16"), val = tensor<fp16, []>(0x1p-24)];
            tensor<fp16, [1, 1]> var_801_cast_fp16 = maximum(x = var_799_cast_fp16, y = var_800_to_fp16)[name = tensor<string, []>("op_801_cast_fp16")];
            tensor<int32, [2]> denom_reps_0 = const()[name = tensor<string, []>("denom_reps_0"), val = tensor<int32, [2]>([1, 384])];
            tensor<fp16, [1, 384]> denom_cast_fp16 = tile(reps = denom_reps_0, x = var_801_cast_fp16)[name = tensor<string, []>("denom_cast_fp16")];
            tensor<fp16, [1, 384]> embedding = real_div(x = input_cast_fp16, y = denom_cast_fp16)[name = tensor<string, []>("op_803_cast_fp16")];
        } -> (embedding);
}